log/model/model.pt (torch, 790025 bytes, 923 tensors)

pe_embedding.fc.weight f4 [16, 1]
00000000: 7b75 3fbd c45c d43e f735 cabe 3b11 80bf
00000010: bcf6 003f 1021 2abf d644 893f 0049 f13e
00000020: fd6f 353f b09e 303f 4905 313f 6c7e 6d3e
00000030: cbe4 2dbf 484b 7ebf a1f8 803f fb62 7e3f
-0.046742897 0.41477025 -0.39494297 -1.0005258 0.50376487 -0.664567 1.0724132 0.47126007
0.70874006 0.6899214 0.6914869 0.23192757 -0.67927235 -0.9933362 1.0075876 0.9936978

pe_embedding.fc.bias f4 [16]
00000000: d94c 4cbd 9560 c13e 27a5 1d3f 684b a1bd
00000010: 5831 8e3e e29a a6be fae5 863e 0103 00bd
00000020: cb8d cbbe b72f f23e 0f64 f63e 24c0 15bd
00000030: 8170 0abe 5ee7 2bbf 1c70 b83d ef8e 85bf
-0.049877975 0.37769 0.6158013 -0.07875711 0.2777202 -0.3254004 0.26347333 -0.031252865
-0.39756617 0.4730203 0.48123214 -0.036560193 -0.1351948 -0.67149913 0.09005758 -1.0434245

timestep_embedding.fc_1.weight f4 [16, 16]
00000000: c754 b83e 3e30 7cbe 3b19 993c a5fb 713e
00000010: 8d75 963e 30fe fabe c631 99be 52ff 03bf
00000020: d88c 283e 009b 1c3e 5d37 a3be f648 873d
00000030: ef39 d3bd 1468 f3be c156 af3e b469 f1bd
00000040: 0743 293d 6074 e93d 431e fc3c 9ec0 d9bd
00000050: 3c3f c43e 661c 2cbf de78 963d eb35 183e
00000060: 39b0 51bd 9ebf 50be 5218 c7bc 0020 893d
00000070: 4fd2 16be 850b 053f 3a14 88bd 0ca0 56bf
00000080: 8b47 323e ae41 943e 2f61 ca3e 40c0 09be
00000090: 7b24 bb3e 9f16 013f 5100 193e 25a0 34be
000000a0: cae9 203d 8783 6c3e 9cc1 d53e ab74 433f
000000b0: 3a68 683e 4484 c43e 6b9d a8be db76 00bf
000000c0: 05ea 1a3e 23a3 82bc cc9d ff3e dd19 1e3e
000000d0: 39b6 8dbd 94af e1be 1d9e 6f3e 1986 c2be
000000e0: f1e5 4f3e d7df a53d b362 7bbe 5132 a4bd
000000f0: adda 183d fc06 163e 8b34 43be c4fe 433e
00000100: 2dc6 813c 2a4b fe3d 6a3a d9be 20e3 38bd
00000110: 2294 09be 64bd 4e3e ea99 02be 1599 e6be
00000120: 1c82 bebc c503 eabd 694b 2dbd 3b8e a6be
00000130: eba6 22be 6ca1 28bf 4ca1 d7bd da34 023f
00000140: 382d 393e a34b 66be e051 423f 42f9 7b3f
00000150: fd6a 71bc 957d f1be 8fa3 04bf 9611 873e
00000160: 377f 38be b340 2e3e ae82 2abf 5f06 013f
00000170: a63b c53e 9ace 973e c70c 09bf f1ba 563d
00000180: 93a1 783c 26c6 243e 43b4 14be 6726 e83e
00000190: 71ee 50be 6fc7 6ebe 61af 63be f5cb a3bd
000001a0: de0b 62be a8c6 283e 6e82 dfbd d109 033d
000001b0: decd 473e f56c 043e 6918 42be e287 5ebe
000001c0: 4456 773c 363e 243e 293a 55be 0a92 43be
000001d0: 5bd7 76be bc22 45be d5d7 35be 47fb 31bd
000001e0: b30e cb3c 27ca 84bd 3f8a f83d b33a 07bf
000001f0: e1b1 78be b023 fb3e 76a6 453e 0275 54bf
00000200: 0ed1 88bd e407 a9bd 98e8 893c 6182 a8bc
00000210: d27f 72be 0c2d 01bf 2616 4d3e 4fe6 353f
00000220: 66fd d53d a40e af3d cc57 ba3c 2df1 8bbd
00000230: 2402 68bb 8677 11bf a066 b63e 0290 8c3e
00000240: 197e 1fbd ca48 743c c952 703d 2fb3 d5bc
00000250: 54b2 c73e 3f62 23be 88fc 0f3f a2af b53d
00000260: 4146 a33e 05de 58be 86cf b63e e987 243e
00000270: e758 5ebc 1017 243d 1207 9bbe 0c42 b73e
00000280: d715 783e 7087 99bd ded7 133e 7fbb 88be
00000290: b829 50be 3b69 183f 6ccd 0f3e 24c5 363e
000002a0: 439a 21be 9dc8 6ebe d55d db3e d497 0c3e
000002b0: 85c1 473e 560a 68be 047b a63e cdae 06bf
000002c0: ae38 4fbe 06d1 663e 8b5e e93d 7491 9c3d
000002d0: 8759 2a3e 27e4 003d ad5e d1be bdae 723e
000002e0: 7740 56be e96e 77bd bba7 eabd d0ce c23e
000002f0: 1d5b 0dbe 424c ca3e 872c 2f3e 055f a73e
00000300: f397 06be d48e a43e 893f e33e 8ce8 363e
00000310: bc01 70be 7802 923e 5eee 6dbe 68ba 5d3e
00000320: cd5f 02bb 5c87 09be 530a 02be 5da3 803e
00000330: ccf5 97be 5aee f03e 4cee 4b3e 04c7 073f
00000340: f3e1 313e dc16 e9bd c022 f53d b093 0f3e
00000350: 7a42 783d 7fe2 6a3f 0935 bb3d ca81 88bf
00000360: a6f2 8c3d 80ac 5d3d d966 d83b 446e a23e
00000370: 1fee 9f3e bd65 e43e 3141 9b3e 5714 bb3e
00000380: 3d19 21bd 96aa 40bd 4aa4 843d e40b 7ebd
00000390: 52db 2abc bd0a 8e3d f156 2abe 2ee4 133f
000003a0: 2929 11be aeeb ebbd d6ac 63bc b777 63bc
000003b0: d08d ffbd 331a 73bf f216 0fbe e465 0c3f
000003c0: a59b 983e 7e26 87be 52e6 b3be 9d12 823f
000003d0: 6856 13bc 497d 57bd 4813 65be 8be7 02bf
000003e0: eb6b 8ebe ac91 e5bd 93cd 90bf 9c94 4bbf
000003f0: e123 6dbe 364a 06bf 53aa b3be 4fa7 39be
0.3600218 -0.24627778 0.018688789 0.23631151 0.2938656 -0.49022055 -0.29920787 -0.5156146
0.16459978 0.15293503 -0.31878176 0.06605713 -0.10313784 -0.47540343 0.34245875 -0.117877394
0.041323688 0.1139915 0.030776149 -0.10632442 0.38329494 -0.6723083 0.07347272 0.14864318
-0.05119345 -0.20385596 -0.024303589 0.06695557 -0.14728664 0.519707 -0.06644483 -0.8383796
0.17410104 0.2895636 0.3952727 -0.13452244 0.3655127 0.5042514 0.14941527 -0.17639215
0.03928546 0.23097049 0.41749275 0.76349896 0.2269601 0.3838216 -0.329326 -0.5018136
0.15128334 -0.01594693 0.49925077 0.15439554 -0.06919522 -0.44079268 0.23400159 -0.37992933
0.2030256 0.08099335 -0.2454937 -0.080174096 0.03731792 0.14651102 -0.19063012 0.19140154
0.015841568 0.1241668 -0.4242738 -0.04513848 -0.13435414 0.20189434 -0.12754026 -0.45038667
-0.0232554 -0.114265 -0.042308245 -0.32530388 -0.15883987 -0.6587131 -0.10528812 0.50861895
0.18083656 -0.2248979 0.7590618 0.9842721 -0.014734981 -0.47166124 -0.5181207 0.26380605
-0.18017279 0.17016868 -0.6660565 0.50400347 0.3852207 0.29649812 -0.5353512 0.052424375
0.015175241 0.16091213 -0.1452189 0.453418 -0.20403458 -0.23318265 -0.2223487 -0.07997886
-0.2207484 0.16482031 -0.10913549 0.031991784 0.19512126 0.12932189 -0.18954624 -0.21731523
0.015096251 0.16039357 -0.20822968 -0.19098678 -0.24105589 -0.19251531 -0.17758115 -0.043452527
0.024787283 -0.0648387 0.12135743 -0.5282394 -0.24286605 0.49050665 0.19301781 -0.8299104
-0.06680499 -0.08253458 0.016834542 -0.020569982 -0.23681572 -0.5045936 0.2002798 0.7105455
0.104487225 0.08547714 0.022746943 -0.0683311 -0.0035401667 -0.56823003 0.35625172 0.2745362
-0.038938615 0.014909932 0.0586727 -0.026086418 0.3900324 -0.15955447 0.5624471 0.0887139
0.31889537 -0.21178444 0.35705203 0.1606747 -0.013571001 0.040061057 -0.30278832 0.35792577
0.24227081 -0.07496536 0.14437816 -0.26705548 -0.20328414 0.5953557 0.14043206 0.1784864
-0.15781502 -0.23318715 0.42845026 0.13729793 0.19507416 -0.22660193 0.32515728 -0.52610475
-0.20236465 0.22540674 0.11394986 0.076449305 0.16635714 0.031467583 -0.40892544 0.2369947
-0.20923029 -0.060408507 -0.11457773 0.3804841 -0.13804288 0.39511305 0.1710683 0.32689682
-0.13143902 0.3214022 0.4438441 0.17862147 -0.23438162 0.28517509 -0.23235461 0.2165314
-0.0019893527 -0.13430542 -0.12699251 0.25124636 -0.29679716 0.47056848 0.19915122 0.5303805
0.17371349 -0.11381313 0.11969519 0.14021182 0.060610272 0.91751856 0.09140975 -1.0664608
0.06882219 0.054119587 0.0066040573 0.3172475 0.3123636 0.4460887 0.30323175 0.36538956
-0.03933071 -0.047037683 0.06476648 -0.06202306 -0.010428267 0.06935642 -0.16634728 0.5777005
-0.14175858 -0.11519562 -0.013896188 -0.013883523 -0.124782205 -0.9496185 -0.13973597 0.5484297
0.29806247 -0.26396555 -0.35136658 1.016193 -0.008992769 -0.052609716 -0.22370636 -0.51134557
-0.2781671 -0.11209425 -1.1312736 -0.79523635 -0.23158218 -0.52456987 -0.35090885 -0.1813023

timestep_embedding.fc_1.bias f4 [16]
00000000: 1b45 86be 3061 793a 67f5 873d 940a 91be
00000010: 47fe 98be 5b46 0fbd 3b53 183e 33ef 9dbd
00000020: 3ecd 053e 384a 35be 2635 04be 765e f5bd
00000030: e4fc bebd fce5 c6bc b77d 9fbe f4a1 9ebd
-0.26224598 0.0009513078 0.06638604 -0.28328383 -0.29881498 -0.034979206 0.148755 -0.07711639
0.13066575 -0.17704093 -0.129109 -0.119809076 -0.09325579 -0.024279587 -0.311506 -0.07745734

timestep_embedding.fc_2.weight f4 [16, 16]
00000000: 3c2d 11be cf53 8cbd 7db1 60bf 705e cb3e
00000010: 7506 fbbe 1979 48bf 96d6 d33e 6b0c b83e
00000020: d4ce 1f3d e23c 10be 16f7 d2bd 84cd f4bd
00000030: cd3a b9be 540f 753e 7b2f 593e 2a89 663e
00000040: 3c7d 8b3e c02b bfbe 45de f3bd bcf6 e23d
00000050: 74b1 da3e b313 f03d d3ea 01bf e92c b63e
00000060: fa92 493e 8e48 08be 631d ea3e bf86 353e
00000070: 2f0c 3dbe d335 2ebe 2383 4fbf 1e5d 06bd
00000080: fec5 b6be a958 603e 1cd9 d2bd 1b09 9a3d
00000090: 2679 a63e 4813 f03e bbc3 5a3d 82ff c03e
000000a0: 49a1 f03e 15ad 52be 0bfb 04be f972 8dbd
000000b0: 6a58 503d 2a6e 183f 5eca a13e e6db 5cbd
000000c0: b7f9 a33d 238d 99be 092d 0fbf f4ec 003e
000000d0: 250d 053f 9f4e cfbd 46a4 96be e1c3 b5bc
000000e0: 110f 173f 9fb4 fabd 2233 2d3e 4d6b f23c
000000f0: 0009 543e 0d56 953e 7c4d 133f c716 8f3e
00000100: 3314 d7bd 21e5 813e 812b c23e a7a4 bdbd
00000110: f34e 0a3f e7d6 103f b2c4 0e3e 77cf 32be
00000120: bc1c bd3d dcea 823e ec98 a63a 0d56 83bd
00000130: 63ce bf3b 2e2d eb3e 8b2e 1a3f bb27 713d
00000140: 6ab2 a7bd 8666 0d3e 11d5 1a3e c4e8 5bbe
00000150: 1e48 b4bd e2e5 92be 9d3d 023d ee46 4abf
00000160: 51b8 cb3d 649a bcbe 1862 acbd d94d 0bbf
00000170: 1ee6 973e b025 6e3e d20b 873e 2cad 86bf
00000180: 50c5 523d 154f f8be adb9 5ebe 4222 143d
00000190: 282e a6be b69a c0bd 9223 873e 7b62 54be
000001a0: 9267 59bf 0b1d 403e 57ce 8d3e 1c62 f13d
000001b0: 99ce 003d c916 7cbf ca92 12be 88a2 d4bd
000001c0: 4580 abbe e339 d4bd 55e0 823e c3ee afbe
000001d0: 9ba4 d03e 1e41 f3bc ddb6 3bbe e9f2 433e
000001e0: 9610 b33e cb7a b53c d1c5 49be 64b6 01be
000001f0: b8e6 8ebe d1c3 b03e ce59 81bc b04a 44be
00000200: e07d de3e 9fc0 83be b177 25bf fb6d c63d
00000210: 3229 febe cabc d4bd c102 303d 4398 11be
00000220: db3a c3bd 0400 1fbf 6581 4a3e 2d4f 643e
00000230: 9a22 b53e 2b95 763d 67a9 82be 89cc c53a
00000240: a526 87be 48bc 443e 94e6 9cbd 2893 633e
00000250: ac65 cebb 5349 d33e ba1b 8b3e fbc2 c13e
00000260: 58d9 e7bd 71cd a53d 01a3 a0be a179 5d3e
00000270: 3a90 89be 408d c13e d05b acbc 34a2 bc3e
00000280: 2ae1 b7bd 69c7 f93e abee 833e c889 91bd
00000290: 38e6 4b3e ea3f 853d 5f8f 02be fc22 a0be
000002a0: f546 d0bd 0e48 203e ec4d 7f3e 3656 15be
000002b0: 0523 31be 84ba 3fbd ec14 523d 6af1 18bf
000002c0: c76c 80be 56e3 0b3e 4089 12bf f074 ca3e
000002d0: 343b 28be b047 e9be 9b56 1c3e e5fc ef3d
000002e0: f910 7abd 83af 0abe a48c aebd 1a10 abbe
000002f0: 0a07 46be cdc8 153e c987 863e 0861 123d
00000300: cf3f dbbe 3296 e33e ecfa 35bd 48cb acbe
00000310: 221a 0abe 0b36 a7bf 73a6 22bd ade7 b43e
00000320: 60aa 973e 8b4b 6bbe 26cb 84be b624 83be
00000330: 98aa ddbe 0a62 0c3f 8869 34bd 2ba3 e8be
00000340: 95ec 35be d7ac a03d 3bbb a43d 8bfe 09be
00000350: 5ab5 343d 25ba 83be c587 803d c255 683e
00000360: 6e65 a03e 4646 193e f906 dd3b 5f5f 6b3d
00000370: 95cd b63d 6363 a13e b604 b1be 5ab3 933e
00000380: 03e7 c7be 051e 443f 1927 d73e 392c d0bd
00000390: 1d5a 89be ca62 b93e f746 05bc da0a 9d3e
000003a0: f5ba e33e c7e4 243c 1c0b 79bc 0a94 443d
000003b0: a2cb 87be 2af1 8c3e 6382 283d 02af e9be
000003c0: fc1a 8abe 5425 4b3e 1585 a63d 3dee 103e
000003d0: 3eff 563e 693a 8b3d 8309 b83c 0850 09bf
000003e0: d509 9a3d b0c6 953e a6c4 48be 59ee 65bd
000003f0: 542e 84be 1dcc 93bd fb9d 443e 54fd 86bd
-0.14177412 -0.06851923 -0.87770826 0.39720488 -0.49028364 -0.7830978 0.41374654 0.35946974
0.039015606 -0.14085725 -0.10301034 -0.119532615 -0.36177674 0.23931628 0.21209519 0.22513261
0.27243984 -0.37338066 -0.11907629 0.11082217 0.4271351 0.11722507 -0.5074894 0.3558114
0.19684973 -0.13308927 0.45725545 0.17727183 -0.18461679 -0.1701272 -0.81059474 -0.032803647
-0.3569793 0.21908821 -0.102953166 0.07521268 0.32514304 0.4688971 0.05340932 0.37694937
0.4699805 -0.20573838 -0.1298639 -0.06906695 0.05086557 0.59543097 0.31599706 -0.05392065
0.08006614 -0.2999049 -0.55928093 0.1259039 0.5197318 -0.10122418 -0.29422206 -0.022188129
0.59007365 -0.12241482 0.16914037 0.02959218 0.20706558 0.29167214 0.57540107 0.27947065
-0.105018996 0.25370124 0.37923816 -0.092599206 0.54026717 0.56577915 0.13942221 -0.17461954
0.09233996 0.25569808 0.0012710369 -0.06412897 0.0058534606 0.45932907 0.6022727 0.05887578
-0.08188327 0.13808641 0.15120341 -0.21475512 -0.08802818 -0.28691012 0.03179704 -0.7901448
0.09947265 -0.3683654 -0.084171474 -0.5441566 0.29667753 0.23256564 0.26376206 -1.0521598
0.051457703 -0.48497835 -0.21750517 0.036165483 -0.3245709 -0.09404509 0.26394325 -0.20740692
-0.8492366 0.18761079 0.27696487 0.11786291 0.031447027 -0.9847227 -0.14313808 -0.10382563
-0.334963 -0.103626035 0.25561777 -0.34361848 0.40750584 -0.029694136 -0.18331476 0.19135632
0.34973592 0.022153279 -0.19704367 -0.12667233 -0.279104 0.34524396 -0.015789893 -0.19169116
0.4345541 -0.25732896 -0.6463576 0.09688946 -0.49640805 -0.10387571 0.042971376 -0.1421824
-0.0953271 -0.621094 0.19775923 0.22295828 0.3537796 0.06020085 -0.2551987 0.0015090863
-0.2639667 0.19212449 -0.07661167 0.22224104 -0.0062987413 0.4126688 0.2716959 0.3784407
-0.11320752 0.080958255 -0.31374362 0.21628429 -0.2686785 0.37803078 -0.021039873 0.368425
-0.089784935 0.4878495 0.25768027 -0.07106358 0.1991204 0.06506331 -0.12750004 -0.3127669
-0.10169784 0.15652487 0.24932069 -0.14583668 -0.17298515 -0.046808735 0.051289484 -0.5974337
-0.2508299 0.1366094 -0.57240677 0.3954234 -0.16428834 -0.45562506 0.15267412 0.11718158
-0.061051343 -0.13543515 -0.08522919 -0.33410722 -0.19338623 0.1462738 0.2627547 0.035737067
-0.4282212 0.44450527 -0.04442875 -0.3374884 -0.13486531 -1.3063368 -0.03970952 0.35333005
0.29622173 -0.22978036 -0.2593624 -0.25613946 -0.43294215 0.54837096 -0.044045955 -0.45436987
-0.1776603 0.078454666 0.08043524 -0.13476007 0.044118263 -0.25727955 0.06275896 0.22688964
0.31327385 0.14968213 0.006745216 0.057464 0.089259304 0.3152114 -0.34573907 0.28847772
-0.39043435 0.76608306 0.42022017 -0.10164685 -0.26826563 0.36208183 -0.008134595 0.30672342
0.44478574 0.01006431 -0.015200403 0.047992744 -0.26522547 0.27527744 0.04113997 -0.45641333
-0.26973712 0.19838458 0.08130852 0.1415338 0.20995805 0.0679825 0.022465473 -0.53637743
0.075214066 0.2925315 -0.19606265 -0.05613551 -0.25816596 -0.07216666 0.1920089 -0.06591287

timestep_embedding.fc_2.bias f4 [16]
00000000: dc96 a7bd 9bd8 29bd c0e3 be3c d8ca a6bd
00000010: d877 abbd 8a9b bd3d bb19 5c3c 2580 503d
00000020: d1e3 df3a c091 6bbe e78e 6cbe 454d 0b3e
00000030: c2fe cc3d e93d 61be c7dd 01be 8757 3b3e
-0.08183071 -0.041466337 0.023301959 -0.08144158 -0.08372468 0.09258182 0.013433869 0.05090346
0.0017081444 -0.23004818 -0.23101388 0.13603695 0.10009529 -0.21996273 -0.12682258 0.18295108

residual_model.0.fc_timestep.weight f4 [16, 16]
00000000: aee3 e0be d888 3b3f ae31 dc3d 91df e9bd
00000010: 3cb5 60be 345d c4bd c886 623e 9ddb a63d
00000020: fdd5 aebe 76dd 4dbe 4a92 5bbe 6601 c9be
00000030: b99c a0bd 8695 743e 7e1f 7abe c400 bdbd
00000040: 58a4 c03d 1718 ea3d 0e58 37bf 7837 0fbf
00000050: 37e0 05bf a461 373e d0a9 6e3f 9c40 7fbe
00000060: 55d4 d9bc 533d 89be 858a c03e fbc8 c4bd
00000070: 3ea2 23bf f8fb 17be 6a55 09bf cdc5 453e
00000080: d1fe a7bc 8682 0abf 0bd3 893e c737 15be
00000090: 1ed2 033f fdee 203e ef2f e0bc a384 0b3d
000000a0: aa20 fdbe 5e56 d33c e7c0 0bbe 4010 123e
000000b0: 212a 89bd f53d 013e fc2f ed3d fe4f cf3e
000000c0: d79f bd3e 8839 a63e 3f7e 543c 0a8e 123f
000000d0: 9512 a0bd 85a8 853e 98ff 8fbe 3ceb 02be
000000e0: 69d7 0a3f 43bb 8abd 48b5 b4bd 3399 93be
000000f0: 10a4 e93e dbc5 993d 79fa 3f3e b495 86be
00000100: a255 47be f34d 523c 4402 05bf f3ab 79be
00000110: 5aa8 0ebe b593 5fb9 ad00 5f3e 94fb 7dbd
00000120: 45ca 403e c59d c1be bb15 8cbe de72 733d
00000130: fb64 82bf 25ba 5c3d 2d80 f8be b310 23bd
00000140: 087f 203f 3b84 4ebf a96a acbd 4bf6 cfbe
00000150: b490 3a3e e8ba 6f3f 2de5 a53e a88a 59be
00000160: 4f30 9b3d 3ad4 0b3e 2cd6 71be ffaf f13e
00000170: c043 09be 98e0 19be 5465 51be d500 f33e
00000180: 13cb 07bf 0349 1abe a9d8 8dbd cacd 5e3e
00000190: c93d 84be cd65 25bf 7bbc 8dbe 3f8d b0bd
000001a0: 5d56 debd c077 013e b72d 8cba 44fe eb3c
000001b0: 99d4 01bf 3edf b53e 4940 58be 44a9 55be
000001c0: 16f1 f8bd eac8 0e3e b903 51bd 2381 0bbd
000001d0: 7bfe a5bd 0bfb 04bf 15c6 b63d 3f23 9ebc
000001e0: 10ab 35bd ca35 b63e da91 44bd 2459 35bd
000001f0: f93d 853e 2ab2 39bd 04b1 9abe cec0 be3d
00000200: 8755 1cbe 3748 c33e 5c4b d13e 66d0 f33e
00000210: 7195 213f 9b8f 5fbe c202 afbe a1f9 6a3f
00000220: 8f9b 18bf 0ef7 463e b38d 1a3e 01fc ffbd
00000230: bb1f 643f f7bd 993e 20c3 0c3f 34b8 1c3e
00000240: 49a2 133e 5de8 643e ae40 89be 4d74 40be
00000250: ce6a 22bf 44eb 4c3d 2248 ec3e e1e0 b0be
00000260: c147 fd3e 7cc1 4dbe fc49 97bc 0aa6 9e3e
00000270: e8d9 bbbe 042b 273d a4c3 debe 1d07 45bd
00000280: 8473 47be ab44 ca3e cd29 183f 2c2c db3e
00000290: 98e7 d83e d310 5fbe 52a8 97be 3fad ea3e
000002a0: f176 c4be 1765 c63d 9050 993d 7bc5 2cbe
000002b0: d036 5c3f 7d2e b53e cb14 c43e af17 fd3b
000002c0: 5deb a8be a42b acbe 0936 a9be 14a8 cbbe
000002d0: ac7b 5abe 955c 23bf b3ea 32bd e402 50be
000002e0: 2b47 b2be 4761 b9be 2973 89be aabd b7be
000002f0: adbf 85bf 0b8c 963d ac60 9fbe 938f d83d
00000300: 9291 f43e 5ac4 42be 54da 493e 5b2e 0abd
00000310: 4048 ae3e 71d4 d73e 43fe ad3e 8ede cdbe
00000320: 5d88 00be 0a43 7f3e e7ec bb3e 427a 043f
00000330: 2969 0a3f ffba f4be c9be 833e 8738 4c3e
00000340: 3ddb 663e b67d 163e 3601 e53e 0843 333f
00000350: 6ee2 e13e 898e af3e baa1 06be 1c09 983d
00000360: 627f c13e 88b2 b63e e197 443e ff6c c43e
00000370: 7d8c 973f f578 1b3e 7977 6b3e a431 9bbe
00000380: 09dd ec3e 1900 d2be bedd 3f3e c0f9 e8ba
00000390: 1527 e53e 8078 d9bd 78b3 7cbc 9d9e 423e
000003a0: 5450 f1be 2323 b63e ab39 4abd 3f97 8b3d
000003b0: c3ad bd3d 0df0 b03e 684d a83d 3459 ec3e
000003c0: 1460 0cbf 6919 a53e 12ce 75be 5c69 febd
000003d0: 403f e0be 1aed 83be 0948 80bd a8b4 c1bd
000003e0: 59e5 c33b f3e6 a9be e66b ac3c 4a93 15bf
000003f0: 917d c0be c0b4 753e 5b2f fbbd 96c4 23be
-0.43923706 0.7325568 0.10751663 -0.11419595 -0.21944135 -0.095880896 0.22121727 0.08147357
-0.34147635 -0.20104012 -0.21442524 -0.3925888 -0.078423925 0.23885164 -0.24426076 -0.09228662
0.09406346 0.11430376 -0.71618736 -0.55944014 -0.5229525 0.1790834 0.93227863 -0.2492699
-0.026590506 -0.268046 0.37605682 -0.096086465 -0.63919437 -0.14842212 -0.53645957 0.19313736
-0.020507248 -0.5410541 0.26918826 -0.14572059 0.5149249 0.15716167 -0.027366607 0.03406204
-0.49438983 0.025798019 -0.13647805 0.14264011 -0.066974886 0.12621291 0.11581418 0.40490717
0.3703601 0.32465768 0.012969553 0.57247984 -0.07816044 0.26105133 -0.2812469 -0.12785047
0.5423494 -0.067739986 -0.08823639 -0.2882782 0.45632982 0.07508441 0.18747891 -0.2628609
-0.1946626 0.012835967 -0.5195658 -0.24382 -0.13931409 -0.00021321962 0.21777602 -0.0620075
0.1882716 -0.3781568 -0.2736033 0.059435718 -1.0187067 0.05388846 -0.4853529 -0.039810847
0.62693834 -0.8067052 -0.08418781 -0.40617594 0.18219262 0.9364457 0.3240141 -0.212443
0.075775735 0.13655177 -0.23616856 0.47204587 -0.13404751 -0.15027082 -0.2044881 0.47461572
-0.5304424 -0.15066914 -0.0692609 0.2175819 -0.25828388 -0.6460846 -0.27682862 -0.086206906
-0.10856316 0.12643337 -0.0010694776 0.028807767 -0.50715023 0.35521883 -0.21118273 -0.20865351
-0.121553585 0.1394383 -0.05102894 -0.0340587 -0.08105179 -0.5194556 0.089245 -0.019303916
-0.04435259 0.35587913 -0.047990657 -0.044274464 0.26023844 -0.045335926 -0.30213177 0.09314118
-0.15267001 0.38141033 0.40877807 0.47619933 0.63118654 -0.21832125 -0.34181792 0.91787153
-0.59612364 0.19430181 0.15093116 -0.12499238 0.89110917 0.30027744 0.5498524 0.15304643
0.14417376 0.22354265 -0.2680716 -0.18794365 -0.6344422 0.050029054 0.46148783 -0.3454657
0.49468806 -0.2009334 -0.018467896 0.30986053 -0.36689687 0.040812507 -0.43508637 -0.048102487
-0.1947766 0.39505515 0.5943878 0.42807138 0.42364192 -0.21783762 -0.29620606 0.458353
-0.38371995 0.0968725 0.07486069 -0.16872208 0.8602114 0.3538703 0.38297114 0.0077237706
-0.32992068 -0.33627045 -0.33049038 -0.3977667 -0.2133624 -0.63813144 -0.043680858 -0.20313603
-0.34819922 -0.3620703 -0.26845673 -0.3588689 -1.044912 0.0735093 -0.31128442 0.105742596
0.4776731 -0.19020215 0.19712192 -0.033735614 0.34039497 0.42154267 0.3398305 -0.40208858
-0.12552018 0.24927917 0.3670418 0.5174905 0.5406671 -0.47798917 0.25731495 0.19943438
0.2254457 0.14696392 0.44727486 0.70024157 0.44118065 0.34288433 -0.13147631 0.074236125
0.37792498 0.35683084 0.19198562 0.38364407 1.1839749 0.1518286 0.22994794 -0.3031131
0.46262386 -0.410157 0.18736932 -0.0017774627 0.4475638 -0.10618687 -0.015423648 0.19005819
-0.47131598 0.35573682 -0.049371403 0.06815957 0.09261658 0.34558144 0.08217889 0.46161807
-0.54834104 0.3224595 -0.24004391 -0.124224395 -0.43798256 -0.25766832 -0.062637396 -0.094582856
0.005978268 -0.33184013 0.021047544 -0.5842787 -0.375958 0.23994732 -0.12264892 -0.1599296

residual_model.0.fc_timestep.bias f4 [16]
00000000: 7956 61bc ba45 4d3d 3e9d 283e 95aa a0be
00000010: 0608 fdbd 8592 973e fd7a 78bd 284b fabc
00000020: 8b31 08be ab4e b6bd 6770 a13d 4c57 f63c
00000030: 1af4 f03d ac03 9cbd bed9 48be 0b7d a53d
-0.013753527 0.050115325 0.16466233 -0.31380144 -0.12355046 0.29603973 -0.060664166 -0.030553415
-0.13300149 -0.089017235 0.07882767 0.030070923 0.11765309 -0.07617888 -0.19614312 0.08080491

residual_model.0.fc_condition.weight f4 [16, 16]
00000000: c331 2f3e 68cd ecbd c5f9 94bc 622e c53c
00000010: 99fb 56be f384 6b3e fd35 203e 02f3 8cbe
00000020: 75a4 66be 88f6 963e 3d1a 6bbd 1af4 533e
00000030: 22e2 dabd 921f c93d 37d1 823e 4ec3 713e
00000040: 2edc 2dbe 2120 4bbc 8849 92bd 0b30 003e
00000050: 02d7 03be cebf c93c d18d d73d b595 d5be
00000060: 415e ff3d 7968 33bb 33a9 343e c8ef 0bbe
00000070: 84e6 463d ad7d b2bd 7131 a73e e227 a63d
00000080: d68f 723e 9d5f 10bc be13 6bbe 8468 6a3e
00000090: 9387 9d3c e820 8bbd 8cb6 ea3d b637 29be
000000a0: e3d6 c0be 1beb b23e 9197 3d3e 9642 4ebe
000000b0: fc4d dc3e 23a9 d83c f94f 54be e302 663e
000000c0: d82d 013e 9e64 7ebe 657e 86bd b703 cc3d
000000d0: 6bcd dd3e 1ffe 16be 3742 0c3e e25e 273e
000000e0: 3d23 343e c965 81be 2260 a5be 43ac 453e
000000f0: c5a5 4cbd f76f 8a3b 1738 afbd f3f3 41be
00000100: 922a 823e 60ae a83d 6bfa 9abe 9a4f d4bd
00000110: 68d2 6d3d f8d9 1abc de88 65bd 32fb 32be
00000120: 9fcf 78be 6dd5 ebbd 02bc e7bd 050e 1abe
00000130: 3357 8f3e 45f9 253b baa3 f13d 475b 24be
00000140: 1213 5c3e 08a7 31be 432b f43c 6522 0abf
00000150: b620 11bd 4fdd a83e bfd6 34bd 69eb 4bbe
00000160: 6507 653e f41f ecbc 55d7 8bbe cdeb d1bd
00000170: bcb7 d7bd c509 44be 9877 a13e a66d 28be
00000180: 9c94 e139 c3ae 453e 5cd2 1f3e cdb9 f33c
00000190: fc39 073e 7159 a3be 75f6 0d3e 12b2 103e
000001a0: d06b 28be 20a3 dc3d eae8 1dbe 8f91 56be
000001b0: 897d 383e 7801 bebd 7135 b2be 68bd 08be
000001c0: 6e5d d8bc 1c89 17bd 167b 913e adf7 9b3e
000001d0: ef1a 4ebd 66cb e33d 7694 e13d 4acf f73d
000001e0: f59a 92be c0ad ecbd 889c 833c 3ac6 56be
000001f0: 3411 943e 2950 7abe c73d 243e be4e 623d
00000200: 9fe8 a73e aa53 1dbe 4400 0bbe bc2d fabd
00000210: c63c 173e 7842 fa3e 2541 8ebe 4713 83bd
00000220: 26a5 693d 0faa 143e 0772 4dbe 59f3 a4be
00000230: 1a8d 063b 076b aabe 666b 2f3e b011 d1bc
00000240: bead 153d 2cd1 5b3e 0b0e 89bd 9a48 b6be
00000250: de80 b8bd 654e a43e 1784 cd3d 230e bcbc
00000260: 0876 8f3e a5cd b83c cc4b 003e faa6 89be
00000270: 20e4 c13c cbce 16be 30f0 86bb 5d77 0fbe
00000280: 2efc bdbc c944 b03b 6613 0e3d f16f a5bd
00000290: a258 8cbd 2d8d 343e aed7 9f3d 5b25 a0bd
000002a0: 6e6a adbc 334b e3bd 26d8 29bd 3510 973d
000002b0: 997a 113d e5bd 49be a722 68bd a4ed 01bd
000002c0: d2a3 5dbe d7c3 7d3e 15e7 98bd aeb6 923e
000002d0: 32d9 58bd 7aab 4a3c 7d07 403e 520f 94bb
000002e0: fc15 fa3d 0933 18be 2fac a7be 6cca fc3c
000002f0: 3323 cdbd 2005 6dbe 6e0a dabd 6419 11be
00000300: bbba 80bd c061 48be 3275 6b3c 5ab2 ba3d
00000310: c336 5ebc 05e0 79be e71b 353e 60a8 80be
00000320: f770 62be fdf6 d2bd 37d3 87bb a5dd 0f3e
00000330: 418c d03d 0fc5 c6bd 4f0c 06be ab40 b5bd
00000340: ca3b b73d 8d85 933d 527c 873e bfd5 c0be
00000350: 2695 90bd c2ab 0d3e 060a e9bc 2614 223e
00000360: fb98 bc3e 34bc f83d f629 993d 405e fbbd
00000370: 717f 85be 0c92 bebd eaa7 45bc 1d57 763d
00000380: f8a6 113e 72f1 293e b0f9 663d 63e5 bfbc
00000390: 91b4 333d c480 e63d 5959 113c 60b6 af3c
000003a0: 001b 013e ce62 243d 5805 c23d ea04 d73b
000003b0: e154 b13d 545f 243d 4946 1f3e a171 313e
000003c0: 8a6d 04be cc36 d5bd 89bf e2bd 3ac0 fbbc
000003d0: ea5f 30bd 81fc fdbd 25a3 5dbd d619 ccbd
000003e0: 4af0 a93d 8aa9 6f3d 3abe 8e3d 81b8 28bd
000003f0: 174f fcbd 6a4c 21ba a219 d7bd 215f 18be
0.17108826 -0.11562616 -0.018185506 0.024069969 -0.20994414 0.22999935 0.15645595 -0.2752915
-0.22523673 0.29484963 -0.05739807 0.20698586 -0.10687663 0.09820475 0.25550243 0.23609659
-0.16978523 -0.012397797 -0.07142931 0.12518327 -0.12874988 0.024627592 0.10525096 -0.4171578
0.124691494 -0.0027375503 0.1764267 -0.13665688 0.04855968 -0.08715377 0.32654908 0.08113076
0.23687682 -0.0088118585 -0.2295675 0.22891432 0.019229686 -0.06793386 0.11460599 -0.16525158
-0.37663946 0.34944996 0.18514849 -0.20142588 0.43028247 0.026447838 -0.20733632 0.22462039
0.12615144 -0.2484307 -0.065670766 0.09961646 0.43320784 -0.14745377 0.13697134 0.16344789
0.17591567 -0.25272968 -0.32299906 0.19303994 -0.049962778 0.004224773 -0.0855562 -0.18940715
0.25423104 0.082363844 -0.3026918 -0.10366745 0.058061987 -0.009451382 -0.05603873 -0.17478636
-0.24297951 -0.11515317 -0.113151565 -0.1504441 0.27996215 0.0025325578 0.117988065 -0.16050445
0.2149165 -0.17348874 0.029805785 -0.5395873 -0.035431586 0.32981345 -0.04415011 -0.1991402
0.22366102 -0.02882383 -0.27312723 -0.102500536 -0.105330914 -0.19144352 0.31536555 -0.16448078
0.00043026067 0.19304948 0.1560759 0.029751683 0.13205713 -0.31904176 0.13863547 0.14130428
-0.16447377 0.10773301 -0.15420881 -0.20953964 0.18016638 -0.09277624 -0.34806398 -0.13353503
-0.026411738 -0.036995992 0.2841422 0.304624 -0.050318655 0.111227795 0.11014645 0.12100084
-0.28633848 -0.11556578 0.01606585 -0.20974055 0.28919375 -0.24444641 0.16039191 0.055250876
0.32794663 -0.15363947 -0.1357432 -0.122157544 0.14769277 0.48878837 -0.27784076 -0.06400161
0.057042263 0.14517997 -0.20063029 -0.3221691 0.002053088 -0.3328478 0.17130813 -0.02552113
0.036542647 0.21466511 -0.066921316 -0.35602266 -0.090089545 0.3209106 0.1003496 -0.02295596
0.28019738 0.022558996 0.12528914 -0.26885206 0.023668349 -0.14727323 -0.004117988 -0.14010377
-0.023191538 0.0053792936 0.03468647 -0.08077992 -0.06852843 0.1763198 0.078048095 -0.07819625
-0.021168914 -0.110983275 -0.0414659 0.07376138 0.03551731 -0.19701345 -0.056673672 -0.031720772
-0.21644524 0.24781738 -0.074659504 0.28655 -0.05294151 0.012369985 0.18752857 -0.004518428
0.122112244 -0.14863218 -0.32748553 0.030858241 -0.10016479 -0.23146486 -0.106465206 -0.14169842
-0.06285616 -0.19568539 0.014371203 0.09116049 -0.013562861 -0.24401863 0.17686425 -0.2512846
-0.22113405 -0.103010155 -0.004145052 0.14049394 0.10183001 -0.09705555 -0.13090633 -0.08850225
0.08946951 0.07203207 0.26462036 -0.37663075 -0.07059698 0.13835052 -0.028447162 0.15827999
0.36835465 0.12145272 0.074787065 -0.12273836 -0.26073793 -0.093052 -0.01206396 0.06014167
0.1422385 0.1659601 0.056390464 -0.02342481 0.043873373 0.11255029 0.0088714 0.021449268
0.12607956 0.04013329 0.094736755 0.006561865 0.086587675 0.040129974 0.15554155 0.17328502
-0.12932411 -0.10410842 -0.11071689 -0.03073131 -0.04306022 -0.12401677 -0.054110665 -0.09965865
0.082977846 0.058511294 0.069698766 -0.04119158 -0.12319773 -0.0006153049 -0.10502936 -0.14880039

residual_model.0.fc_condition.bias f4 [16]
00000000: ea0e 92be a944 ea3c 487b af3d c6ae 3f3e
00000010: 0c4b 84be bf00 4dbe 2488 043e 5a7d 283e
00000020: 24dd 5ebe 3809 2a3e 272b 21bc ac36 a33e
00000030: cb97 483e 1ea9 cbbc cf00 903c 72f7 603d
-0.28527004 0.028597193 0.08568436 0.18719015 -0.25838506 -0.20019816 0.12942559 0.16454068
-0.21764046 0.16605079 -0.0098369485 0.3187765 0.19589154 -0.024860915 0.01757851 0.054923482

residual_model.0.fc_output.weight f4 [16, 8]
00000000: 7abd 9bbe 2c6b 91bd 55f1 84be a60e 7fbe
00000010: c924 0f3e 88ed acbe 910d c53e 4af4 873e
00000020: 2f8d 2f3e 9067 11be 4b82 54be 35e5 4c3e
00000030: c0af bfbc 2f79 d93e fe75 113e 94e1 053f
00000040: 44dc 58be a545 1b3e c739 c33c 09a7 47be
00000050: 1849 67be 07b4 3dbe fb46 55bd d63c b6be
00000060: c905 b33e 2b36 8d3e 22e4 b73e a000 7dbe
00000070: 2bd8 4a3d 912e 56be 4b9e 84be e0ba c63c
00000080: 708d 83bd 8879 b5be 7aa5 e9bd 45ab 6abe
00000090: e7a1 45bd 8616 8c3e fab0 d5be 35c8 ca3d
000000a0: 27b5 b4be 4a58 f9bd 0222 e5be ee81 c13e
000000b0: 7831 b83d e9a5 89bd 28e2 fa3e e3cb 34be
000000c0: fb34 0f3e bcdd 86be 7bd8 c6be cd7b 77be
000000d0: 1a8f 2f3e 709c 3fbe 83ab d93e ab12 3dbd
000000e0: c030 253d 74a6 eb3e 7bb1 23bf 5b70 b53d
000000f0: a0f3 a4be 076f c2be 12e7 fe3e f3a1 0a3f
00000100: 85e0 b53e e3f5 a63e 0f34 7bbd 9433 a03e
00000110: e600 87be 58f0 093e 10f7 9c3d 4d33 d8be
00000120: bd52 c53e a375 613d f4f2 4a3e 899a c8bc
00000130: 3aa4 f2be 343d ebbd 4704 ac3e eccc 85be
00000140: c204 d1be 7b23 8abe 7d5c 71be 807d 0f3d
00000150: b49a 2a3e d1a5 843e 34a5 b83e 4d5d b03e
00000160: 486c 143d 8a52 29bd 8e6f a13c 0539 433e
00000170: 1011 1dbe 3097 23bd b5eb 6f3d 3d34 a33e
00000180: 6d20 d13e 5a17 8b3e e9ef c1be be33 aabe
00000190: 40e5 82be 2664 bebe 3026 243d d315 493e
000001a0: 1af3 e23e 2fbb e23d af20 babe 670c 7d3e
000001b0: 6a23 bfbe 8729 243e 6891 ce3e 4c38 5b3e
000001c0: 6287 d23e 388b 013f 8e1c 3d3e 91ca 81be
000001d0: e97e cabe c2e7 d9be 890c 8fbe e6ad 1bbe
000001e0: b5b4 ef3d 3df1 db3e 136f 4f3e 2db8 80be
000001f0: 3aa5 8cbe 2db6 603c f4d3 723e 1cfb ddbd
-0.30417997 -0.071005195 -0.25965372 -0.24907932 0.13978876 -0.33774972 0.38486913 0.26553565
0.17143701 -0.14199662 -0.20752828 0.2000931 -0.023399234 0.42475268 0.14205167 0.5229733
-0.21177775 0.15163286 0.023831261 -0.19497313 -0.22586477 -0.18525706 -0.052069645 -0.3559329
0.3496535 0.2758039 0.3591624 -0.2470727 0.04952256 -0.20916201 -0.25902018 0.02425903
-0.064234614 -0.35444283 -0.11408515 -0.22916897 -0.048250105 0.27360934 -0.41736585 0.09901468
-0.35294458 -0.12175043 -0.44752508 0.3779444 0.089938104 -0.06721098 0.4900067 -0.17655902
0.13985054 -0.26341045 -0.38837036 -0.2416832 0.17144433 -0.1871202 0.42513666 -0.04616038
0.040329695 0.4602543 -0.6394269 0.08859321 -0.3221712 -0.37975332 0.49785668 0.54153365
0.35522857 0.32609472 -0.061328944 0.3128935 -0.26367873 0.1347059 0.07664311 -0.4222664
0.38539687 0.055043828 0.19819242 -0.02448775 -0.4739092 -0.11486283 0.33597013 -0.26132905
-0.40823942 -0.26980194 -0.23570438 0.035031796 0.16660577 0.25907758 0.3606354 0.34446183
0.036236078 -0.04133848 0.019706514 0.1906472 -0.1533854 -0.039939106 0.058574397 0.31875792
0.4084505 0.27166253 -0.3787835 -0.332426 -0.2556553 -0.37185782 0.04007548 0.19637232
0.44326097 0.11070859 -0.3635306 0.24711762 -0.37331706 0.16031466 0.4034531 0.21408194
0.41118914 0.50603056 0.18467924 -0.25349858 -0.3954995 -0.4255963 -0.2793925 -0.15203056
0.11704389 0.42957488 0.20257215 -0.25140515 -0.27469808 0.013715309 0.23713666 -0.10838911

residual_model.0.fc_output.bias f4 [16]
00000000: 7c12 afbe 69f8 0cbe e380 363e b6d7 f4bc
00000010: e607 b53d 4833 943e 4d0d ef3d 8a9e 2e3d
00000020: 998d 873e 0cb4 993e 0007 4c3d b624 603e
00000030: f627 363e 2780 2f3e 7caf babe 0859 a4bd
-0.3419379 -0.13766636 0.17822604 -0.029888015 0.08839397 0.28945374 0.11672459 0.042631663
0.26475218 0.30020177 0.049811363 0.21889004 0.17788681 0.1713873 -0.3646201 -0.08024794

residual_model.0.attention.0.attention.in_proj_weight f4 [48, 16]
00000000: 9b96 51bd 76ae 4d3d 137c 183f cfd3 e83d
00000010: 197e cabe 9fbe b83e a5a6 713e 8d53 cf3e
00000020: 8d97 d83e f357 843e 4f65 993d 23ef 81bd
00000030: 5462 8dbb 4799 2a3d 87c1 de3e f423 843e
00000040: 6269 b9be cf7e 143e b0c0 9dbe 4921 6f3e
00000050: edc4 463d 89ed 93be 4dfd 973d a52a 7fbe
00000060: 3006 aa3e 738c c1be edf6 043e d800 fabd
00000070: f661 513d bd68 3ebc 7bbd adbd 96c4 873e
00000080: cf72 7fbe 5142 9e3d d6a2 e8be 47e6 a4be
00000090: 34ed 17bd ceae 863d 58d9 05be eb1b cdbe
000000a0: 2073 6bbe ae45 39be 68a2 bdbe 56c7 1bba
000000b0: af6d 8dbe 596e eabd ff74 273d 226c a03c
000000c0: 031b 69be 0810 c1be cb8c 61be d0e8 19bf
000000d0: 37a9 0d3e 1559 52be c2ba dfbe b899 a6be
000000e0: 35f5 68be 36f1 27bd bb25 f9bd 9034 89be
000000f0: a011 c8be 0833 f23d 3708 403e 4c25 5c3d
00000100: 9e9b 9dbd af96 99be 42e0 8b3c 8d43 74be
00000110: 64de ea3e 6c72 f2bd 2336 7fbd 4527 443e
00000120: bdad 63be dcbd 0d3e 3107 05bd 01a3 e53d
00000130: b9ac ba3d 2f56 2ebe bb11 01be b3d4 803d
00000140: eaec 503e 4a61 c33e f59b dd3d 5812 233e
00000150: d3aa be3e 5240 04be 67bf dc3c 5ac3 393e
00000160: 246f 92be 1a86 bdbd adff 203d 384f 543d
00000170: b60c 1dbd 0e6d 06bf 4414 163e 872d b4bb
00000180: 47ea bc3d d3f7 293d 776b d23e f1ad 073e
00000190: 8a3e e13d b8be 693e f49e 763d 206a 8b3d
000001a0: 76ff 8e3e 5f54 f73d 79f3 7b3d e11c 753e
000001b0: 96db c53d 0575 9dbd 7d8d 9e3e 53cc 8abc
000001c0: e3be c93e 7f5d 26be b2ca e03e 62a1 963e
000001d0: ad45 81be e5d1 a03e 6924 ce3d 7982 b53e
000001e0: ef63 4abe 08d6 1e3e bfc9 033e f41f c3bd
000001f0: d869 203e d737 2f3e 7293 503e 31f9 f9bd
00000200: 81a8 603e 6680 b2be ca4c 9cbe f0a8 a4be
00000210: a998 bb3d c77e c6be 1334 72bb f5a0 1ebe
00000220: fa0a 67bd 2953 ab3d f62b 19be 5f81 b1bc
00000230: ebf6 b7be 9b22 923e 5318 413d 2ef4 2ebe
00000240: 5a09 803e b1d3 70be c9fe 84be a212 a9bd
00000250: d16c a83e 63c4 01bf 291a 003e 0492 adbe
00000260: 5253 b13b 4e33 d7bc 15d5 f3bb 1aa9 bc3d
00000270: d013 f2bd f197 aa3d ade9 49be 298a b2be
00000280: 371c e03e efff db3d ed40 3ebe 8d81 e3bd
00000290: 520c 023f f96f c43e 9da7 9abe 2cbb 083e
000002a0: 0cac 25be ba67 d13d 8bb4 b3bd 0f73 48be
000002b0: cf6c 9ebe 6137 fabe d836 47bc 8d44 9ebc
000002c0: 8afe cdbd f02d ce3e 3b57 57be eeae 263c
000002d0: 05b8 9f3e cb51 e73e 90eb 4f3e babc 78ba
000002e0: 9a0e 6ebe 30ca 0d3e 9675 b13d 2fa1 14be
000002f0: cd14 bc3e 762a 82be ee3f 613d e1bc 8e3e
00000300: 49f1 c7bd 4595 933e 658f b83e 72f8 2c3d
00000310: 6aa4 13be 3051 d53e 63d9 863e 4891 d33b
00000320: 01a1 133c 0385 8a3e f3c4 e13d e445 c53e
00000330: 130a ee3d 2ee6 f5bd 12ad 4abe 1a81 b03d
00000340: 86fd c0bd bd6a 0dbd 4355 063c 7624 92be
00000350: 4f00 a63c 30d4 5fbb b95e 3ebd f028 833c
00000360: c304 41be 6576 9dbd 4fb2 08be 4bc3 bbbe
00000370: 1b92 a4be 8c25 273d 03ba f73d ee99 b1bb
00000380: 461f b3be 7307 71be c92a 72be e819 44be
00000390: 01e4 70bc c65c c03c becb e4bc 4e70 a4be
000003a0: e4f8 f63a 7123 be3d 82b7 36bd 4886 a33d
000003b0: b679 74be 035f 903e 2ff1 16be 2916 91be
000003c0: 6cdc 353e 9c35 3b3d bd8f 90be 22f5 013c
000003d0: 30dd 123f 64fd f73e 27a9 bf3b 93da dd3d
000003e0: 09a8 42be 695a ad3d ba03 7cbe 94b4 5fbe
000003f0: 329d f6bc ef46 58be f66b acbe 3743 8a3e
-0.05116902 0.050215207 0.5956432 0.11368524 -0.3954933 0.36082932 0.23598726 0.40493432
0.42303124 0.2584835 0.07490026 -0.0634444 -0.0043147 0.041650083 0.43507025 0.2580868
-0.36213213 0.14501499 -0.3081107 0.23352541 0.048527647 -0.28892162 0.0742136 -0.24918611
0.33207846 -0.37802467 0.1298482 -0.12207192 0.051118813 -0.011621651 -0.08483406 0.2651717
-0.2494614 0.077274926 -0.45436734 -0.32206938 -0.03709145 0.0657631 -0.13071191 -0.40060362
-0.22993135 -0.18092987 -0.3703797 -0.0005942484 -0.27622744 -0.114468284 0.04088306 0.019582812
-0.2276421 -0.37707543 -0.22026365 -0.6012087 0.13834082 -0.20541795 -0.43697172 -0.32539153
-0.22749789 -0.04100152 -0.121654 -0.26797915 -0.39075947 0.1182614 0.18753134 0.053746507
-0.07695697 -0.29997775 0.017074708 -0.23853894 0.45872796 -0.118382305 -0.06230749 0.19155605
-0.22234245 0.13841957 -0.03247756 0.11212731 0.091149755 -0.17025064 -0.1260442 0.06290569
0.20402876 0.38160163 0.10820762 0.15924966 0.37239704 -0.12915161 0.026946736 0.18140927
-0.2860042 -0.092540935 0.03930633 0.05183336 -0.0383422 -0.52510154 0.14656168 -0.0054985913
0.09224372 0.04149611 0.41097614 0.13249947 0.109982565 0.2282666 0.060210183 0.06807351
0.27929276 0.120766394 0.06151149 0.23936798 0.09661023 -0.07688335 0.30967322 -0.016943133
0.39403448 -0.16246603 0.43904644 0.2942 -0.2524847 0.31410137 0.100655384 0.35451105
-0.19764684 0.15511334 0.12869929 -0.09527579 0.15665376 0.17111145 0.20368746 -0.122057326
0.21939279 -0.34863585 -0.30527335 -0.3216014 0.09159977 -0.38768598 -0.0036957308 -0.15491088
-0.056406952 0.08365471 -0.14958176 -0.021668134 -0.3593057 0.28542027 0.047142338 -0.17085335
0.25007135 -0.23518254 -0.25975636 -0.08255507 0.3289552 -0.5069029 0.1250998 -0.33900464
0.005411544 -0.026269581 -0.007441173 0.09211941 -0.11820185 0.08329762 -0.19718046 -0.34871033
0.43771526 0.10742175 -0.18579455 -0.11108694 0.5080005 0.38366678 -0.30206004 0.1335265
-0.16178912 0.102248624 -0.0877467 -0.19575141 -0.3094239 -0.48870376 -0.012159072 -0.019319797
-0.10058315 0.40269423 -0.2102937 0.010173542 0.31195083 0.4517959 0.20304704 -0.00094885717
-0.23247758 0.1384666 0.08665006 -0.14514612 0.3673462 -0.2542302 0.05499261 0.27878478
-0.09762818 0.2882482 0.360469 0.042229123 -0.14418188 0.41663504 0.26337728 0.006456528
0.009010554 0.27054605 0.11023893 0.38529885 0.11623015 -0.12006794 -0.19792584 0.08618374
-0.09423356 -0.03452562 0.008199039 -0.28543442 0.020263819 -0.0034153573 -0.046477053 0.016010731
-0.18849473 -0.076885976 -0.1334927 -0.36672434 -0.3214272 0.040807292 0.12096026 -0.005419961
-0.34984797 -0.23537998 -0.23649134 -0.19150507 -0.014702798 0.023481738 -0.027929183 -0.32116932
0.0018842486 0.09284104 -0.0446086 0.079845965 -0.23874554 0.28197488 -0.14740442 -0.2833722
0.17759866 0.045705423 -0.28234664 0.007931979 0.57368755 0.4843551 0.005849022 0.10832705
-0.19009413 0.0846451 -0.24610797 -0.21846229 -0.030104253 -0.21120809 -0.33676118 0.27004406

residual_model.0.attention.0.attention.in_proj_bias f4 [48]
00000000: 6503 913e 5ce9 313d 97d4 12be 0994 8dbe
00000010: e4d1 fdbd 4787 1abd 25c5 9b3d f549 d13d
00000020: 68fd 17be 3820 33be 654e 19be fbc8 1c3d
00000030: 9aa4 8c3e 31a0 c8be 7af6 31be e000 30bd
00000040: 1e2f 1338 2cf0 d737 1847 bcb6 a0e1 de36
00000050: ebcb 6e37 520b 4e38 bc08 7938 07c7 5538
00000060: ebcd c737 1120 9d38 1805 b6b6 8ceb a5b8
00000070: 8fdd 2938 c101 a937 61ae 02b8 421b b5b7
00000080: 44cd 193d ef9a f63c cf5d babd b008 1cbb
00000090: 97dc 53bd 6e4e 24bb e141 563c a340 67bd
000000a0: 26be 6ebb 8417 173d a864 f0bc ebaf 213d
000000b0: 9ab2 2c3d 6ddc 39bd 4272 803d 56e7 a53b
0.28322902 0.04343544 -0.14338909 -0.27652004 -0.12393549 -0.037726667 0.07605962 0.10219184
-0.1484276 -0.17492759 -0.14971311 0.038277607 0.2746933 -0.39184716 -0.1737918 -0.042969584
3.5091412e-05 2.5741836e-05 -5.611113e-06 6.642382e-06 1.4233384e-05 4.912477e-05 5.937436e-05 5.0968516e-05
2.3818537e-05 7.492316e-05 -5.4246157e-06 -7.911687e-05 4.0499082e-05 2.0147187e-05 -3.115682e-05 -2.1589574e-05
0.037549272 0.030103175 -0.09099924 -0.002380889 -0.051724043 -0.0025071162 0.01307723 -0.056458127
-0.0036429255 0.03688766 -0.029344872 0.03947441 0.042162515 -0.04537623 0.06271793 0.005062978

residual_model.0.attention.0.attention.out_proj.weight f4 [16, 16]
00000000: 4887 2c3e 5a83 31bd 2a55 4c3d 021d 9ebd
00000010: ae63 b4bd 125d c037 c954 553e d5cc a33b
00000020: 56c6 863d f577 65bd f621 3f3d 7bf3 46be
00000030: 0998 553e d219 94bd 5e5f 653d 8b8d 8d3d
00000040: 2cfa f7bd a6f1 103d 4f0f 85be 46d9 af3d
00000050: 3cbe ba3d 72b3 52bd 8413 99bd 4ad1 37bc
00000060: b0cd 1c3d 11da 803d 80c7 c1bd 2c82 bc3d
00000070: 35f3 e93b cce2 2d3e b0fd 7bbd 8579 963d
00000080: a481 4fbd ff7a e13d 52c4 d5bd 6212 033e
00000090: 8a29 253e 089a 37be 3587 8cbe 977c 833d
000000a0: 9b38 00bd 41ea ed3c 2316 78bd 665e cebc
000000b0: a4bd 55be f0f3 8fbd 47f8 023e b7c6 0abd
000000c0: c169 0ebd f12b 12be 3f9d c13c ede0 783d
000000d0: aa65 d2bd 9237 ddbd a67e 15be 149e aabd
000000e0: ab7b 423e eec6 e43d d040 1ebe 023c 983e
000000f0: 4d76 3fbd f2da de3d 03b3 84bd e870 fcbc
00000100: a3ca 833c bc5a f1bb 57c8 1f3e 7acb be3d
00000110: f460 2c3d 7e8c 12be 39e8 85bd 46e3 3d3c
00000120: 8810 733d e6c1 48bd f827 5b3e a965 aabe
00000130: e849 3cbd 2aa0 b7bd 474a e93d 9f11 493d
00000140: 8032 c0bc 5a57 b53c 8e2c babd d791 30bd
00000150: 80c3 48bc a819 c4bc 8ee9 fd3d 4fe9 7dbd
00000160: 8cea bd3d 5e81 f4bd 27a3 973c ab4c 0ebc
00000170: 3821 073e b18c 91bc ad78 bb3b b350 3c3d
00000180: 3b2c 48be a932 863d 430d 95be 1a09 533d
00000190: d32a 133e 38f1 a43c a2b8 c93d 6887 d33d
000001a0: 64b6 513d b7de 363c db57 ccbd 3320 edbb
000001b0: 9802 f23b d3f9 643e 2498 80bd d460 6abd
000001c0: f347 ddbd d85f 8c3c 432f da3d 4ced a23d
000001d0: 9afb 40be 33c9 a2bd 7d90 01be a14e b9bd
000001e0: f2b8 1f3e f9ab 6ebe 45dd c43c 4ab8 873e
000001f0: 0aab 2b3e a691 87bd 3a7c 8a3c 3d15 df3d
00000200: 6ade f1bd 10c5 adba af33 3cbd e0a1 e43d
00000210: 6cf8 133e 54c8 483c c9b1 553d d973 3abd
00000220: 7ce7 483e d4d6 04be 3250 1f3e 85f2 e1bd
00000230: 5ccd 3cbe b3a3 063e e368 1cbe d016 a33c
00000240: b16d 21be 0688 c93d ae03 153e 98e3 81bd
00000250: 24b4 c83d 94eb 99bc 123b 0e3e 0ee5 80be
00000260: 6d41 363d fd07 f1bc 2575 2fbd d82b d1bd
00000270: 0df4 bfbd 7b12 5dbe 6605 58bd 5d2d 11bc
00000280: 5273 66bd 8c5e 95bd 54e1 6b3c 9733 bebc
00000290: 0f86 9c3d 5855 eabd 5990 033d 2c17 49be
000002a0: 0cab bcbc 417f 02bd e30d e1bd bca9 0fbd
000002b0: 724e 583e e268 3fbd 18c6 cd3d 71bb 2c3d
000002c0: 5707 5b3c f326 8b3d 60dd b1bd 54bb a8bb
000002d0: 3c86 d03c a39d 853d 465d b93d d4eb 94bd
000002e0: ab48 163e 9617 98bc 48d4 933d 3330 3cbd
000002f0: dc4d cabd dfed ad3d 36c5 8bbe d15b 213e
00000300: 78fb 29bd 4100 0f3d 1ded 263e 1a31 50bc
00000310: 9160 8ebd e79f 8f3d 2a47 ab3d 5935 bfbd
00000320: eeb5 c03d 0af5 ed3d 9281 283e 76bc f4bd
00000330: 824e 2abe 9021 8c3d bd1b 2dbe 2754 983d
00000340: 4eee 16bb 6ae4 bd3d bf84 c0bd 0c34 283d
00000350: c814 123d 3946 5fbc d75b ec3c 7fdf b63d
00000360: 4e7f 563b 2a05 eabc 319d 063e ccc0 01be
00000370: 2873 c4bd 565d fd3c 2fc1 2bbc a655 ac3d
00000380: aaa9 c33c dc34 8e3c d618 6cbd f2f0 0a3e
00000390: 75d5 bdbd 09ca e43d 8cbc b4bd 98a5 e03d
000003a0: 4a08 83bd 5794 233e bca7 533d 83a7 003e
000003b0: a02b bbbd 778b 813e ea49 14be e955 213d
000003c0: 265e 67bd 8fc0 363e e4d8 1cbe da9a 0ebd
000003d0: 879e e9bc e86d 3fbb 56f5 e53d 9956 973c
000003e0: eee8 37be 9601 cbbc f01e f13c 49e7 103e
000003f0: c245 84bd 4b3a 82bb e963 c43d 4863 3fbd
0.1684848 -0.043338157 0.049885906 -0.077203766 -0.08808075 2.2931523e-05 0.20833124 0.004998783
0.06580798 -0.056022603 0.046663247 -0.19428818 0.20858778 -0.07231487 0.055999152 0.06911763
-0.121082634 0.035386704 -0.25988242 0.085863635 0.091183156 -0.051440664 -0.074744254 -0.011219332
0.038282096 0.06291593 -0.0946188 0.09204516 0.0071395882 0.16981047 -0.061521232 0.07347397
-0.050660744 0.11009788 -0.10437836 0.12799981 0.16129127 -0.17929852 -0.27446905 0.06420248
-0.031303983 0.029042365 -0.060567986 -0.025191497 -0.20873123 -0.07028949 0.12790023 -0.033880915
-0.034768824 -0.14274575 0.023634551 0.06076138 -0.10273297 -0.10801615 -0.14599094 -0.08330932
0.18992488 0.11170755 -0.15454412 0.29733282 -0.04674368 0.10881604 -0.06479456 -0.030815557
0.016087836 -0.0073655527 0.15603767 0.09316154 0.04208465 -0.14311406 -0.065384336 0.011589831
0.059341937 -0.04901304 0.21401966 -0.33280686 -0.04596892 -0.08966096 0.113911204 0.04908907
-0.02346158 0.022136379 -0.090905294 -0.043107834 -0.012253642 -0.023938015 0.12398063 -0.06199008
0.09273252 -0.11938737 0.018510414 -0.008685271 0.13196266 -0.017767282 0.005721173 0.0459754
-0.19548123 0.065526314 -0.2911168 0.05152235 0.14371805 0.020134553 0.09849669 0.10328561
0.051199332 0.011161498 -0.099776946 -0.0072365045 0.007385563 0.22360925 -0.062790185 -0.05722125
-0.10804739 0.017135546 0.10653546 0.07955417 -0.18845978 -0.07948532 -0.12652774 -0.090482004
0.15597895 -0.2330779 0.02403129 0.2650779 0.16764465 -0.06619577 0.016904939 0.10892723
-0.1181 -0.0013257582 -0.045947727 0.11163688 0.14450234 0.012254793 0.052171502 -0.045520637
0.19619554 -0.12972575 0.15557936 -0.11032585 -0.18437713 0.13148384 -0.15274386 0.019908339
-0.157645 0.098403975 0.14552185 -0.06342238 0.09799984 -0.01878909 0.13889721 -0.25174755
0.04449599 -0.029422754 -0.042836327 -0.10213441 -0.09372721 -0.21589081 -0.052739523 -0.008860913
-0.05626232 -0.07293424 0.014396984 -0.02321796 0.07642757 -0.11442059 0.032120083 -0.19637746
-0.02303078 -0.03185964 -0.10988977 -0.03507398 0.21123675 -0.046730883 0.10047549 0.042170946
0.013368449 0.06794538 -0.08684802 -0.0051492844 0.025454633 0.065242074 0.090509936 -0.07271543
0.14676158 -0.018565934 0.07218224 -0.045944404 -0.09878132 0.08492636 -0.27298898 0.15757681
-0.041499585 0.03491235 0.16301389 -0.012707019 -0.06952012 0.07012921 0.08363183 -0.09336347
0.094097 0.11619003 0.16455677 -0.119500086 -0.16631511 0.06842339 -0.16905113 0.07437926
-0.0023030224 0.09272082 -0.09400319 0.04106526 0.03566435 -0.013627582 0.028852386 0.08929347
0.0032729688 -0.028566916 0.13145901 -0.12671202 -0.09592277 0.030928295 -0.01048307 0.08414774
0.023884613 0.01735919 -0.057640873 0.13568476 -0.09269229 0.11171348 -0.08825025 0.109690845
-0.063980654 0.15974556 0.051673636 0.125639 -0.0913918 0.25301716 -0.14481321 0.03938857
-0.05648627 0.17846893 -0.15317112 -0.034815647 -0.028517975 -0.0029209796 0.11228435 0.01847391
-0.1795995 -0.02478103 0.029433697 0.14150728 -0.06458618 -0.003974234 0.09589369 -0.04672554

residual_model.0.attention.0.attention.out_proj.bias f4 [16]
00000000: 6357 7a3c 9fcc 7abd 9f9b 9a3d 68ad 83bd
00000010: 7866 843d f41d 1c3e a285 97bd ee82 8fbd
00000020: 66cb c1bb 27ed 82bd ed51 233d 4ebc 033d
00000030: daca af3d 26db 453c d52a cdbd 219a e8bc
0.015279624 -0.061230298 0.075492136 -0.06429559 0.06464857 0.15245801 -0.07398535 -0.07007395
-0.0059141396 -0.063928895 0.039873052 0.032162003 0.08583613 0.012076175 -0.10017935 -0.028393807

residual_model.0.attention.0.fc_1.weight f4 [8, 16]
00000000: d684 1e3c 5e9c 873e cd87 aebe c2f7 783d
00000010: 5ad9 8a3e eeb6 ebbe 2a94 403e 6092 993c
00000020: 99d7 96bd e89c 863e a993 59be 9cfb 753e
00000030: 431c b3be f693 663a 46f1 37be 9abd 42bd
00000040: f62e 64bd afc0 af3d d374 99bd 9dcc 72bc
00000050: 2876 913e 36d0 9d3e cb33 67be f4c1 e0bd
00000060: d79e 283e 9782 8c3e 5ea6 45be 59b9 bdbd
00000070: 3ae9 22be f6ef 36be 4123 113e 17b1 433e
00000080: 66d2 53bd 1a80 c9bd f257 403e 8671 093e
00000090: 25e1 8cbe 836e 453e 60e0 61be dcd9 053c
000000a0: 441e 85be 32b1 363e b57d b9bd f01f aebd
000000b0: f318 383e d320 843d abd4 773e 4bad f9bd
000000c0: f469 f93d 8b38 d73e b494 8c3e 26d0 9bbd
000000d0: 7733 c03c 14f4 8e3e 5dd7 ddbe 3f81 87be
000000e0: e770 b03e 1ff8 49be 3d6c 5fbd 3e21 27be
000000f0: 3106 363e 69aa 93be e5a3 febb a39e b03d
00000100: 91bd 10be edf6 c13d 7a92 57be c5ca 33bd
00000110: 79e7 153e d8b4 233d 7e9c 3dbd be31 f93c
00000120: 4991 a03d a5c2 803e 8b32 e5bd 0514 fb3d
00000130: 471f 76be 54f0 313d 408c 603e b6e0 09bd
00000140: ffa4 8b3c c829 bb3e 0ec0 4c3e d6ed e7bd
00000150: 9a8a c33e 2ebe a43e 2be2 0cbd aaa7 22bd
00000160: 8fbd 4cbe 6a51 023e 37f2 9bbd 5a54 863b
00000170: 46fe c43e e9c1 4cbd 97bf 4abe f9eb 33be
00000180: 27bb c03d ce93 cdbd 7b3e f13d 8ffe dfbd
00000190: 0502 553e e2ec 1e3e 636b db3d a7ae 4dbe
000001a0: e933 a0be af67 b5bd 928a debe 5272 a33e
000001b0: 62ac b33d f07f e4be 9883 eb3d c4c0 efbc
000001c0: 5e7b 0dbe 84b6 d33e e94d 75be 753f 9a3c
000001d0: de5c 9d3e f190 11be 0a6e d43d 41b8 b93d
000001e0: 4f4d f93d 6ae9 ae3d 3897 38be dd3e 3a3e
000001f0: ed2f 70bd 15ec a7be 1948 d93d deb8 ef3d
0.009675225 0.26486486 -0.34087983 0.060783155 0.2711895 -0.46038002 0.1880652 0.018746555
-0.07365341 0.26291585 -0.21247734 0.24021763 -0.349825 0.00087958516 -0.17963132 -0.0475441
-0.055708848 0.08581673 -0.074929856 -0.014819291 0.2841046 0.30822915 -0.22578351 -0.109744936
0.16466843 0.27443382 -0.19301745 -0.09263868 -0.15909281 -0.17864975 0.14173605 0.19110523
-0.051714323 -0.098388866 0.18783548 0.13422212 -0.27515522 0.19280438 -0.22058249 0.0081696175
-0.25999653 0.17841032 -0.0905718 -0.08502185 0.17978267 0.06451573 0.2420222 -0.12191256
0.12178412 0.42035326 0.274572 -0.076080605 0.02346204 0.27920592 -0.43328372 -0.26465794
0.34461138 -0.19723557 -0.054546583 -0.16321275 0.177758 -0.2884095 -0.0077710026 0.086240076
-0.14134814 0.094709255 -0.2105197 -0.043894548 0.14639081 0.039967388 -0.04629182 0.030419227
0.07840211 0.25148502 -0.11191281 0.12259678 -0.24035369 0.043442085 0.21928501 -0.033661567
0.01704645 0.36555314 0.19995138 -0.113246605 0.38191682 0.32176346 -0.034395378 -0.03971068
-0.19994186 0.1272637 -0.07614558 0.004099411 0.38475245 -0.049989615 -0.19799648 -0.17570485
0.094106965 -0.10037957 0.11779495 -0.10937225 0.20801552 0.15520051 0.10713842 -0.20086156
-0.31289604 -0.08857667 -0.43465096 0.31923157 0.08773114 -0.4462886 0.11499709 -0.029266723
-0.13816592 0.41350186 -0.23955502 0.018829087 0.30734915 -0.14215447 0.10372551 0.09068347
0.121729486 0.08540614 -0.18026435 0.18188043 -0.058639456 -0.32797304 0.10609455 0.117051825

residual_model.0.attention.0.fc_1.bias f4 [8]
00000000: 598d 09bc 7c86 4abd 6e30 463e 2169 02be
00000010: 7257 3a3d 423e 38bd 1ed0 3f3e f673 45bc
-0.008395516 -0.04944466 0.19354412 -0.12735416 0.04549355 -0.04498125 0.18731734 -0.012051573
