log/model/model.pt (torch, 790025 bytes, 923 tensors)

pe_embedding.fc.weight f4 [16, 1]
0.030656882 0.10815558 -0.14025372 -0.7152622 0.5062409 -0.37495756 0.92872924 0.4700623
0.69046915 0.7176545 0.7281594 0.18770115 -0.65392166 -0.98195827 1.0275643 0.9424184
00000000: 2424 fb3c ac80 dd3d ac9e 0fbe 6c1b 37bf
00000010: 0199 013f 70fa bfbe 33c1 6d3f 01ac f03e
00000020: 96c2 303f 35b8 373f a868 3a3f bb34 403e
00000030: 6967 27bf 9e61 7bbf 3a87 833f 5542 713f

pe_embedding.fc.bias f4 [16]
-0.049875345 0.09357652 0.23479329 -0.08686237 0.18013938 -0.3589374 0.17310135 -0.11201172
-0.44008544 0.33050036 0.43999112 -0.081037335 -0.11886076 -0.67767394 0.06132013 -1.0671692
00000000: 174a 4cbd 0ca5 bf3d a76d 703e e6e4 b1bd
00000010: 7576 383e a5c6 b7be 7b41 313e 6766 e5bd
00000020: e152 e1be 5837 a93e 8446 e13e e7f6 a5bd
00000030: 456d f3bd 0a7c 2dbf d12a 7b3d 0099 88bf

timestep_embedding.fc_1.weight f4 [16, 16]
0.28724703 -0.14513832 0.33805797 -0.16453579 0.017133268 -0.6115184 -0.4294119 -0.63620824
0.438643 -0.050619207 0.088124685 0.15331922 0.065118745 -0.52454036 0.19984755 0.29084736
-0.012646209 0.0052698134 -0.07621425 -0.0766843 0.29225248 -1.0694238 0.08840447 -0.07909184
0.035926137 -0.3739545 0.031778883 -0.089128025 -0.31345677 0.3016329 -0.034276597 -0.97049767
0.46684584 0.03514765 0.046869997 -0.532929 0.7881208 -0.3287454 0.34891117 -0.28190497
0.39121184 -0.16021219 0.47914997 0.66785645 0.70404446 0.2513832 -0.39346594 0.094711624
0.08930895 0.15024385 0.83661246 0.8479847 -0.115695305 -0.08453729 0.027315103 0.06613216
0.20562802 0.23511997 -0.81478333 -0.27156872 0.24093637 -0.10478998 -0.8949007 0.41124725
-0.09549174 0.027887253 -0.37325475 -0.18641168 -0.17016684 0.5731537 -0.36514154 -0.14063828
0.102902606 0.0042119483 -0.017920535 -0.30910623 -0.4168189 -0.3105709 -0.2103773 0.9464555
0.5819325 -0.19456725 0.36746216 0.6225453 0.31218746 -0.11202395 -0.61867976 0.26528946
-0.2528323 0.058824416 -0.4703415 0.45636827 0.33945435 -0.09296031 -0.38952604 -0.088274725
0.16621041 0.23253801 -0.22426936 0.14963774 -0.013635954 -0.52175456 0.12074545 -0.3247863
0.23151138 -0.11057126 -0.09605792 0.09360062 0.030301157 0.4326763 -0.3705619 -0.73947173
-0.052207902 -0.034183424 0.13267124 0.07829594 -0.08607173 -0.6140292 -0.08720699 0.2176193
0.16066709 -0.55737317 -0.03828008 -0.28172782 -0.26594147 0.51687187 0.21797878 -0.8169728
-0.18140487 -0.05198534 0.18513303 -0.024415381 -0.04131696 -0.12542067 0.27051565 0.9915972
0.16288173 0.06973868 -0.006242458 -0.09538381 0.16965385 -0.8585654 0.28928366 0.21067263
0.10666606 -0.13727137 -0.21350236 -0.52967554 -0.59252757 0.11461795 0.4674466 0.41496456
0.029395267 -0.21729733 0.1011509 0.30176693 0.5404245 0.6705399 -0.29270697 -0.009162845
0.3001048 0.22923164 -0.07956665 0.38592476 0.106747 0.41800237 -0.21237323 0.033233106
-0.3750692 -0.43501145 0.36223227 -0.2259052 0.027271168 0.09721654 0.78883 -0.41636884
0.36592004 -0.01697124 -0.25591865 0.33829495 0.39926624 0.6983509 -0.1825917 0.34987193
-0.15224034 0.049189847 -0.24786405 0.12755139 -0.3008686 0.2805729 0.26395813 -0.025845312
-0.2055781 -0.0705543 0.30928418 0.05022168 -0.7684549 0.33446327 -0.27674106 -0.057518624
0.4439072 0.044070873 0.1909587 -0.29730615 0.03973842 0.304536 -0.017855082 0.6836849
0.0531824 -0.26410553 0.086283706 0.15741059 -0.04329777 0.9073295 0.08106012 -1.0948275
0.056370467 0.2944606 -0.06987538 0.3561277 0.20350999 0.8633002 0.029738873 0.36673975
-0.27873734 0.22047415 0.021814475 0.7104702 0.7858641 -0.18797119 0.13087203 0.20259678
0.25836813 0.1311888 -0.03452843 -0.38646522 -0.57027185 0.33632165 0.0009830208 0.4824614
0.39858854 -0.32586142 0.03929243 -0.18235588 0.040409446 0.2841521 0.16864529 -0.68218833
-0.066239074 -0.041187257 -0.24691184 -0.27055594 -0.009862249 -0.75956726 0.04547473 -0.39510322
00000000: 0b12 933e 249f 14be ef15 ad3e 127c 28be
00000010: 115b 8c3c 788c 1cbf e0db dbbe 8bde 22bf
00000020: d195 e03e 1656 4fbd b77a b43d b7ff 1c3e
00000030: fa5c 853d 4748 06bf d6a4 4c3e f2e9 943e
00000040: 0c32 4fbc 66ae ac3b 3716 9cbd a90c 9dbd
00000050: 1ea2 953e e1e2 88bf 670d b53d e7fa a1bd
00000060: 4927 133d f776 bfbe 932a 023d c188 b6bd
00000070: 687d a0be a16f 9a3e 9e65 0cbd 8972 78bf
00000080: 6b06 ef3e fbf6 0f3d c1fa 3f3d 096e 08bf
00000090: 49c2 493f 5151 a8be 7ca4 b23e d955 90be
000000a0: eb4c c83e aa0e 24be 2553 f53e a4f8 2a3f
000000b0: 423c 343f 4cb5 803e 5e74 c9be 2bf8 c13d
000000c0: 9ce7 b63d 86d9 193e 3c2c 563f 8615 593f
000000d0: a9f1 ecbd e321 adbd ecc3 df3c 4c70 873d
000000e0: 2790 523e 4ac3 703e a495 50bf 0e0b 8bbe
000000f0: 06b8 763e 219c d6bd 3618 65bf 008f d23e
00000100: 2c91 c3bd cf73 e43c 3f1b bfbe b4e2 3ebe
00000110: 3740 2ebe 33ba 123f d5f3 babe 7b03 10be
00000120: 9abe d23d 6204 8a3b 16ce 92bc 2c43 9ebe
00000130: 4969 d5be 2603 9fbe 266d 57be e84a 723f
00000140: 87f9 143f a33c 47be 0024 bc3e 215f 1f3f
00000150: 09d7 9f3e d06c e5bd cc61 1ebf 05d4 873e
00000160: 3c73 81be dff1 703d 9ad0 f0be 1aa9 e93e
00000170: f6cc ad3e fa61 bebd f56f c7be 61c9 b4bd
00000180: 1033 2a3e 721e 6e3e dea6 65be a33a 193e
00000190: 5669 5fbc b591 05bf 6449 f73d 644a a6be
000001a0: 5211 6d3e 2f73 e2bd 04ba c4bd afb1 bf3d
000001b0: 223a f83c bf87 dd3e 4aba bdbe 054e 3dbf
000001c0: f4d7 55bd eb03 0cbd f8da 073e 9f59 a03d
000001d0: 6046 b0bd 0531 1dbf 9499 b2bd 98d7 5e3e
000001e0: ea85 243e 02b0 0ebf 93cb 1cbd a13e 90be
000001f0: 7b29 88be b751 043f d435 5f3e 2125 51bf
00000200: 33c2 39be 94ee 54bd 8393 3d3e c402 c8bc
00000210: f93b 29bd 476e 00be 0781 8a3e 50d9 7d3f
00000220: 78ca 263e 27d3 8e3d 888d ccbb 9658 c3bd
00000230: bdb9 2d3e f1ca 5bbf fd1c 943e 91ba 573e
00000240: bc73 da3d de90 0cbe 5da0 5abe d198 07bf
00000250: e3af 17bf d1bc ea3d 2955 ef3e 3c76 d43e
00000260: 58ce f03c 3183 5ebe 3428 cf3d 3281 9a3e
00000270: 4359 0a3f 81a8 2b3f b0dd 95be c21f 16bc
00000280: 56a7 993e b3bb 6a3e d7f3 a2bd ee97 c53e
00000290: 2c9e da3d 6804 d63e 5e78 59be 701f 083d
000002a0: 1209 c0be d2b9 debe 8276 b93e b153 67be
000002b0: c967 df3c 7719 c73d c3f0 493f 4c2e d5be
000002c0: df59 bb3e 4507 8bbc c507 83be ff34 ad3e
000002d0: a06c cc3e 20c7 323f 52f9 3abe 6a22 b33e
000002e0: e4e4 1bbe 4b7b 493d 13d0 7dbe d59c 023e
000002f0: 730b 9abe 40a7 8f3e 8525 873e 8cb9 d3bc
00000300: 1183 52be c67e 90bd 7f5a 9e3e 40b5 4d3d
00000310: 76b9 44bf c53e ab3e 01b1 8dbe a698 6bbd
00000320: ce47 e33e a983 343d ad8a 433e 8338 98be
00000330: c1c4 223d 25ec 9b3e d244 92bc f905 2f3f
00000340: cad5 593d d738 87be 83b5 b03d 3e30 213e
00000350: 0159 31bd bf46 683f d902 a63d 4f23 8cbf
00000360: b8e4 663d 8ac3 963e d31a 8fbd 5f56 b63e
00000370: ec64 503e 3e01 5d3f f09e f33c 50c5 bb3e
00000380: a9b6 8ebe fac3 613e 45b4 b23c 60e1 353f
00000390: 642e 493f 857b 40be 5103 063e 8875 4f3e
000003a0: d448 843e 5b56 063e af6d 0dbd c5de c5be
000003b0: 56fd 11bf 5a32 ac3e b4d8 803a 2e05 f73e
000003c0: cc13 cc3e 4fd7 a6be 19f1 203d 80bb 3abe
000003d0: 6084 253d 627c 913e 5ab1 2c3e e5a3 2ebf
000003e0: 5aa8 87bd f8b3 28bd 75d6 7cbe 4f86 8abe
000003f0: 4595 21bc 0073 42bf b643 3a3d f84a cabe

timestep_embedding.fc_1.bias f4 [16]
-0.24315237 0.015211589 -0.040041465 -0.22608864 -0.18631558 -0.15687133 0.12514275 -0.019540379
0.09454738 -0.44440058 -0.22441657 -0.1779137 -0.14950544 -0.027426792 -0.31212977 -0.11988446
00000000: effc 78be 073a 793c 8502 24bd c883 67be
00000010: 83c9 3ebe e1a2 20be 6c25 003e 2513 a0bc
00000020: 0fa2 c13d 7988 e3be 75cd 65be 022f 36be
00000030: f417 19be 27ae e0bc 79cf 9fbe fc85 f5bd

timestep_embedding.fc_2.weight f4 [16, 16]
-0.34695086 -0.09554943 0.052862305 0.55761075 0.02942353 0.08328393 0.42147994 0.11601293
0.14146195 0.4903156 -0.26623237 -0.2568902 -0.5346514 0.12009654 0.29342696 0.44071582
-0.21217877 -0.09367683 -0.62879676 0.3235101 0.54718494 0.39401513 -0.014171573 -0.15270418
0.4730208 -0.31834644 -0.17180486 0.21371937 0.08299137 0.46881482 -0.6513581 -0.38091147
-0.476889 0.3046964 -0.046657324 0.2128086 0.11703169 0.24581155 0.1319305 0.21756938
0.5958694 -0.52887 -0.26525274 -0.056773268 0.16788279 0.7298535 -0.44024158 -0.3527786
-0.3644532 -0.35290486 -0.17442043 0.07525094 0.5999959 -0.3745029 -0.56491566 -0.53158945
0.7120627 -0.1647814 -0.08244431 -0.091666125 0.2948009 0.27239093 -0.042700015 -0.16687296
0.04131835 0.39074242 0.23648919 0.1356341 0.39918905 0.46911743 0.22118656 -0.23970234
0.29954848 -0.15646377 0.32492712 -0.19453295 -0.005746993 0.4135531 0.24668811 -0.3158856
-0.25396365 0.19795153 0.31325293 -0.327967 -0.30907595 -0.48614463 0.3110527 -0.23204921
-0.44531298 -0.24926463 -0.27610338 -0.52493465 0.15242136 0.5548635 -0.20949523 -0.19032495
0.076920316 -0.38500118 0.013159454 -0.19479221 -0.16791071 -0.074580334 0.22513115 0.18653496
-0.56642705 0.6050761 0.32040718 0.257615 0.022283107 -0.5467341 0.379543 0.11753738
-0.36644086 -0.34874558 0.3154888 -0.47366866 0.57576394 0.035170756 -0.41914013 -0.2659021
0.5247724 -0.5251311 -0.5444906 -0.19736195 -0.24740387 0.34518236 -0.5832507 -0.19330409
-0.040107276 -0.24779168 -0.23669769 0.08770567 -0.1269226 0.17311704 -0.11120644 -0.26920044
0.08777272 -0.32686546 0.045905333 0.026300343 0.27948403 0.26126763 -0.75478745 -0.16396701
-0.88399 0.07918409 0.12240396 0.00790052 -0.87268656 -0.09571371 0.3056069 0.535083
-0.53185797 0.16383374 -0.06873509 0.48695698 -0.4917793 0.64854574 -0.22855711 0.024833303
0.10015916 0.57936805 -0.44089386 -0.2941643 -0.30989465 0.31835547 0.120155334 -0.30299014
0.15630835 -0.09982617 0.19004112 0.27652663 0.3003884 -0.04942863 -0.37166926 0.20488152
-0.32171783 0.27802855 -0.6961869 0.0556481 0.07494485 -0.619862 -0.32492363 0.12815134
-0.1810406 -0.3735723 -0.37208667 -0.08405972 -0.17025411 0.3565716 -0.05613769 -0.06703315
-0.5638269 0.6160309 -0.054533556 -0.7382721 -0.2964124 -0.7915016 0.18221697 0.2629292
0.39802566 -0.41331342 -0.17561862 -0.1850301 0.06914959 0.66185653 -0.61321807 -0.264124
-0.13820381 0.3851064 -0.03556682 -0.08053371 -0.33415803 -0.2135628 0.26801935 0.05902847
0.27639633 -0.19092357 -0.21812448 -0.04378643 0.19350368 0.20456687 -0.5269729 0.14919111
-0.23365165 0.9029144 0.4236524 -0.09166209 -0.658507 0.33022985 0.27157295 0.35383448
0.5651789 -0.4594954 0.030772183 -0.08762125 -0.5714593 0.5225384 -0.37286314 -0.29945886
-0.58093727 -0.5160522 -0.40616527 -0.016314084 0.43217337 0.24080884 -0.51288503 -0.59923726
0.36313102 0.0802849 -0.21390249 0.5229677 -0.16852349 0.19755748 -0.13638437 -0.5726906
00000000: 8ba3 b1be 6baf c3bd 2586 583d 94bf 0e3f
00000010: 9d09 f13c c490 aa3d 38cc d73e 3098 ed3d
00000020: 67db 103e a50a fb3e 9c4f 88be 1d87 83be
00000030: eade 08bf 2df5 f53d 0f3c 963e 81a5 e13e
00000040: 6445 59be a3d9 bfbd d3f8 20bf 1ea3 a53e
00000050: 5014 0c3f 5abc c93e e32f 68bc 7c5e 1cbe
00000060: c82f f23e 4efe a2be 9ded 2fbe 40d9 5a3e
00000070: 61f7 a93d 7f08 f03e 68bf 26bf d406 c3be
00000080: cc2a f4be 2b01 9c3e c01b 3fbd 7fea 593e
00000090: 50ae ef3d 06b6 7b3e ca18 073e 82ca 5e3e
000000a0: e68a 183f 0664 07bf 35cf 87be 168b 68bd
000000b0: 77e9 2b3e aed7 3a3f 5867 e1be 669f b4be
000000c0: 9c99 babe f2af b4be 459b 32be 2a1d 9a3d
000000d0: 5599 193f d8be bfbe 509e 10bf 3f16 08bf
000000e0: be49 363f 75bc 28be 90d8 a8bd 73bb bbbd
000000f0: 25f0 963e d376 8b3e 36e6 2ebd bfe0 2abe
00000100: 6e3d 293d 640f c83e 392a 723e aae3 0a3e
00000110: 8262 cc3e 2930 f03e bb7e 623e 8874 75be
00000120: 6b5e 993e 0a38 20be d95c a63e a533 47be
00000130: 4551 bcbb 3bbd d33e cf9b 7c3e c2bb a1be
00000140: 8607 82be ceb3 4a3e b062 a03e 4aeb a7be
00000150: 343f 9ebe f3e7 f8be 4d42 9f3e 4f9e 6dbe
00000160: 1000 e4be 3a3f 7fbe 6c5d 8dbe 1e62 06bf
00000170: 5814 1c3e 890b 0e3f eb85 56be 8be4 42be
00000180: 6688 9d3d e01e c5be c09a 573c 9c77 47be
00000190: c9f0 2bbe 93bd 98bd c888 663e 0503 3f3e
000001a0: 5d01 11bf 44e6 1a3f 690c a43e 1de6 833e
000001b0: 108b b63c c4f6 0bbf 7653 c23e 70b7 f03d
000001c0: 239e bbbe c88e b2be bf87 a13e b384 f2be
000001d0: 4465 133f 360f 103d 8999 d6be 5224 88be
000001e0: 7c57 063f fe6e 06bf bc63 0bbf 4019 4abe
000001f0: 7157 7dbe bebb b03e eb4f 15bf 82f1 45be
00000200: 8747 24bd 1abd 7dbe e160 72be 089f b33d
00000210: 00f8 01be 9845 313e 34c0 e3bd a4d4 89be
00000220: 2fc2 b33d e95a a7be 3b07 3c3d d173 d73c
00000230: 8818 8f3e dfc4 853e c039 41bf f8e6 27be
00000240: 2b4d 62bf 452b a23d edae fa3d 2f71 013c
00000250: 6368 5fbf 8d05 c4bd 8278 9c3e 33fb 083f
00000260: d827 08bf 08c4 273e fcc4 8cbd 6d52 f93e
00000270: 7fca fbbe 1807 263f e00a 6abe 366f cb3c
00000280: 3f20 cd3d 7751 143f d7bc e1be b49c 96be
00000290: 83aa 9ebe 7dff a23e 0014 f63d 8621 9bbe
000002a0: 4c0f 203e aa71 ccbd 249a 423e e694 8d3e
000002b0: 82cc 993e ad75 4abd 6f4b bebe 76cc 513e
000002c0: 33b8 a4be c259 8e3e 4e39 32bf 43ef 633d
000002d0: af7c 993d 47af 1ebf 645c a6be 1b3a 033e
000002e0: b562 39be de44 bfbe 2582 bebe 8127 acbd
000002f0: 1857 2ebe 8e90 b63e a2f0 65bd ad48 89bd
00000300: f656 10bf 33b4 1d3f 945e 5fbd 66ff 3cbf
00000310: 5ec3 97be d99f 4abf 1697 3a3e a89e 863e
00000320: 05ca cb3e d19d d3be 5ed5 33be 8878 3dbe
00000330: 4d9e 8d3d 6e6f 293f dcfb 1cbf 433b 87be
00000340: 4d85 0dbe ab2c c53e 84ae 11bd dcee a4bd
00000350: c316 abbe 35b0 5abe d539 893e d6c7 713d
00000360: d283 8d3e 7881 43be 065c 5fbe 6659 33bd
00000370: d425 463e fa79 513e b2e7 06bf 8ec5 183e
00000380: 6142 6fbe 6625 673f f8e8 d83e 55b9 bbbd
00000390: ea93 28bf e313 a93e 9c0b 8b3e cb29 b53e
000003a0: 90af 103f fb42 ebbe f215 fc3c c572 b3bd
000003b0: 284b 12bf 14c5 053f ebe7 bebe ac52 99be
000003c0: 4eb8 14bf ff1b 04bf e5f4 cfbe 1da5 85bc
000003d0: d445 dd3e 9896 763e 6f4c 03bf 9d67 19bf
000003e0: 4fec b93e 696c a43d 4109 5bbe 36e1 053f
000003f0: 6c91 2cbe 824c 4a3e 58a8 0bbe da9b 12bf

timestep_embedding.fc_2.bias f4 [16]
-0.09560616 0.05679764 0.14286028 -0.08585201 -0.2177316 -0.0038929312 -0.11606973 0.17384881
-0.035850473 -0.24907464 -0.09876012 0.14939307 0.106400765 -0.17108878 -0.06140604 0.04703587
00000000: 2acd c3bd a4a4 683d f749 123e 2ed3 afbd
00000010: 08f5 5ebe 8c20 7fbb f7b5 edbd 6c05 323e
00000020: f2d7 12bd 6c0d 7fbe bf42 cabd 7ffa 183e
00000030: a5e8 d93d e631 2fbe e684 7bbd afa8 403d

residual_model.0.fc_timestep.weight f4 [16, 16]
0.45358837 0.16988565 0.022513337 -0.45710868 -0.28844404 0.40534505 0.41139752 -0.044957694
0.012307097 0.2979527 -0.23527795 0.027364576 0.21471661 0.285089 -0.13087894 -0.30934435
0.2163363 -1.0312774 -0.8098383 -0.573135 -0.16375563 -0.14954115 0.79508513 -0.53135645
-0.3769894 0.3524153 -0.10759731 -0.21393912 -0.8875229 -0.15567239 -0.87931645 -0.304686
0.22721717 -0.27782267 -0.16214302 0.14927521 0.6518087 -0.48204386 0.22809668 -0.31270635
-0.20793097 -0.21261784 0.024237992 -0.015810132 -0.026524408 -0.021846399 0.00420093 -0.14346036
0.20853737 0.78007555 0.15572123 0.29809308 0.14950077 0.37684354 -0.34316328 0.2661206
0.23273505 0.034013137 -0.02075361 -0.20223531 0.40192318 0.30348387 0.34747696 0.44411096
-0.10720404 -0.8307773 -0.9618271 -0.21891227 0.002878731 -0.14977871 0.3955499 -0.4910603
-0.11281892 -0.06141068 -0.115610294 0.12772922 -0.9983325 -0.013887464 -0.6865355 -0.44828713
-0.18531068 0.5435658 0.19997574 -0.017888905 -0.0741983 0.5814695 -0.16827111 0.33010286
-0.0213769 -0.103522345 -0.23068093 -0.2351775 0.07448838 0.27007854 0.13798968 0.7242483
-0.3946556 -0.10691749 -0.13057001 0.19676109 -0.12725456 0.022904111 -0.2887757 0.07833614
-0.1406325 0.33831057 0.083868936 0.1645461 -0.50864595 0.17936179 -0.20212598 0.19020237
-0.31199628 0.2945227 0.13990685 0.24444231 -0.269174 0.21702296 -0.27700433 0.39033267
0.38677773 -0.12020077 0.43636158 -0.07010301 0.6899834 0.18203881 0.1069155 0.49650854
-0.13991594 0.65198153 0.5218201 0.41732386 0.17010014 -0.046848606 -0.22773752 0.43952748
0.15407585 -0.51063424 0.59296346 0.061314803 0.7618925 0.29301274 0.5302904 0.24832669
0.06699438 -0.5028199 -0.6063655 -0.43535492 -0.27838483 -0.16424592 0.35938945 -0.25489545
0.106322825 0.032406982 0.28659767 0.11478654 -0.36946642 0.036662653 -0.43623292 -0.020612909
-0.22861606 0.8858446 0.7518193 0.27242023 0.16456856 0.18811114 -0.27547172 0.46007663
0.010147628 -0.53757435 0.21309383 -0.23491576 0.6822475 0.24381872 0.6728779 0.47359872
0.015264079 -1.115862 -0.82967556 -0.22493987 -0.096414685 -0.56541187 0.31107438 -0.7494666
-0.492563 -0.18055694 -0.062821515 -0.106615126 -0.92208797 -0.18306503 -0.7268627 -0.31875175
-0.053390194 0.79252034 0.5856057 0.21817209 0.30914122 0.27608323 -0.16054597 0.27961513
0.067111194 -0.028957175 0.10639293 0.021921191 0.78755367 -0.17018718 0.54790837 0.2950977
0.08785675 0.82398415 0.62834257 0.520779 0.051337454 0.39055964 -0.05418914 0.41902658
0.4314434 0.34060258 0.14597924 0.43188602 1.1371194 0.43092176 0.43580827 -0.08836095
0.35800654 0.36954778 0.39733258 0.11681336 0.23908903 -0.034866977 -0.10080114 0.3376939
-0.1933069 0.3802189 0.015545831 -0.028143547 0.26922607 0.2898218 0.25299942 0.5548131
0.024467414 -0.37204406 -0.1768418 -0.29228374 0.20810917 -0.10769319 0.23081227 -0.43233788
0.13674356 0.12761994 0.11267135 -0.3030665 -0.19868591 0.13886237 -0.24565454 -0.2380866
00000000: bc3c e83e 81f6 2d3e e46d b83c 260a eabe
00000010: f0ae 93be 6389 cf3e b2a2 d23e 8f25 38bd
00000020: b5a3 493c 428d 983e b4ec 70be ad2b e03c
00000030: acde 5b3e 2ff7 913e 2105 06be 6262 9ebe
00000040: 4387 5d3e e600 84bf 9051 4fbf fab8 12bf
00000050: 8eaf 27be 5121 19be b38a 4b3f fa06 08bf
00000060: c104 c1be c76f b43e fa5b dcbd db12 5bbe
00000070: b334 63bf 9568 1fbe e21a 61bf ceff 9bbe
00000080: 9eab 683e c63e 8ebe d208 26be 9adb 183e
00000090: efdc 263f 74ce f6be 2d92 693e 0c1b a0be
000000a0: dbeb 54be 7eb8 59be c18e c63c 4084 81bc
000000b0: b749 d9bc 38f7 b2bc f4a7 893b 46e7 12be
000000c0: d28a 553e 08b3 473f 6375 1f3e a89f 983e
000000d0: bb16 193e a3f1 c03e 19b3 afbe f640 883e
000000e0: 1952 6e3e 5c51 0b3d 7a03 aabc c616 4fbe
000000f0: e0c8 cd3e 3d62 9b3e 80e8 b13e 8362 e33e
00000100: cb8d dbbd d2ad 54bf 4d3a 76bf 8a2a 60be
00000110: 17a9 3c3b 975f 19be 8485 ca3e 416c fbbe
00000120: 9b0d e7bd c489 7bbd 17c5 ecbd 73cb 023e
00000130: b892 7fbf 3f88 63bc cac0 2fbf e485 e5be
00000140: 15c2 3dbe 2127 0b3f 71c6 4c3e c18b 92bc
00000150: 47f5 97bd 2fdb 143f 434f 2cbe 3e03 a93e
00000160: 9c1e afbc 8603 d4bd 9f37 6cbe 5fd2 70be
00000170: 5d8d 983d bc47 8a3e 2b4d 0d3e 5668 393f
00000180: 4c10 cabe 8ff7 dabd 25b4 05be bd7b 493e
00000190: 054f 02be 67a1 bb3c 69da 93be b36e a03d
000001a0: f701 10be 0b37 ad3e 7ac3 ab3d c67e 283e
000001b0: 9f36 02bf 9eaa 373e 1dfa 4ebe 69c4 423e
000001c0: fabd 9fbe aecb 963e be43 0f3e 164f 7a3e
000001d0: 2dd1 89be 443b 5e3e 83d3 8dbe afd9 c73e
000001e0: bb07 c63e d22b f6bd c96a df3e 2b92 8fbd
000001f0: c1a2 303f 6268 3a3e 83f6 da3d 5e36 fe3e
00000200: 2046 0fbe 43e8 263f 0196 053f 79ab d53e
00000210: bb2e 2e3e 53e4 3fbd 0634 69be bf09 e13e
00000220: 0fc6 1d3e edb8 02bf 74cc 173f 3b25 7b3d
00000230: 630b 433f c405 963e 1dc1 073f 5a49 7e3e
00000240: 5934 893d ceb8 00bf c53a 1bbf d7e6 debe
00000250: 7588 8ebe 1530 28be e501 b83e a881 82be
00000260: c8bf d93d 2fbd 043d eebc 923e 3515 eb3d
00000270: b42a bdbe 942b 163d ec59 dfbe 67dc a8bc
00000280: 541a 6abe b6c6 623f 3b77 403f aa7a 8b3e
00000290: a984 283e 35a0 403e a10a 8dbe 2a8f eb3e
000002a0: 3d42 263c 799e 09bf 4535 5a3e c28d 70be
000002b0: c6a7 2e3f 9dab 793e ba41 2c3f 887b f23e
000002c0: 3016 7a3c 91d4 8ebf 9e65 54bf a356 66be
000002d0: 1075 c5bd d5be 10bf 2445 9f3e 0bdd 3fbf
000002e0: 3831 fcbe ebe3 38be 91a8 80bd 0859 dabd
000002f0: f50d 6cbf 6675 3bbe ad13 3abf 6e33 a3be
00000300: adaf 5abd 9de2 4a3f 41ea 153f 8168 5f3e
00000310: c247 9e3e c85a 8d3e 2a66 24be b729 8f3e
00000320: 9871 893d 9937 edbc 89e4 d93d 1294 b33c
00000330: 1e9d 493f 8c45 2ebe b943 0c3f 0c17 973e
00000340: 3dee b33d a0f0 523f 0fdb 203f c651 053f
00000350: 3947 523d 6ff7 c73e 6ff5 5dbd a78a d63e
00000360: 26e6 dc3e 7663 ae3e 957b 153e 2a20 dd3e
00000370: 218d 913f c7a1 dc3e 4322 df3e 96f6 b4bd
00000380: a24c b73e 5e35 bd3e 2d6f cb3e d83b ef3d
00000390: c1d3 743e add0 0ebd d470 cebd 37e6 ac3e
000003a0: 3ef2 45be 0dac c23e f1b3 7e3c 4c8d e6bc
000003b0: 00d8 893e 8663 943e 2489 813e 3b08 0e3f
000003c0: e36f c83c 8f7c bebe 0416 35be 37a6 95be
000003d0: 921a 553e 3f8e dcbd 0d5a 6c3e 645b ddbe
000003e0: 8106 0c3e cdae 023e 3dc0 e63d 882b 9bbe
000003f0: 5274 4bbe f031 0e3e dd8c 7bbe f9cc 73be

residual_model.0.fc_timestep.bias f4 [16]
-0.14350611 0.14535497 -0.096229665 -0.33856207 -0.16519542 0.26796415 0.18668054 -0.019866195
-0.24682793 -0.30565202 0.120857894 -0.008467081 0.1545288 -0.14836875 -0.21372454 -0.04227894
00000000: 44f3 12be efd7 143e 0f14 c5bd 0258 adbe
00000010: fd28 29be 9932 893e 2f29 3f3e 6ebe a2bc
00000020: 76c0 7cbe 6c7e 9cbe 5884 f73d 83b9 0abc
00000030: cc3c 1e3e faed 17be 9bda 5abe af2c 2dbd

residual_model.0.fc_condition.weight f4 [16, 16]
0.22366296 -0.17359285 -0.19807102 0.019104011 -0.24682793 0.23554963 0.299995 -0.3798461
-0.26274204 0.39280197 -0.07383039 0.18361309 -0.19399579 0.11660027 0.43033627 0.20711084
-0.16018839 -0.11586483 -0.08314107 0.15211394 0.1961519 0.06045251 0.15837361 -0.36099178
0.22872429 0.025263697 0.020754466 -0.1720285 0.0020652881 -0.13092381 0.25972375 0.08313272
-0.16152796 0.12473441 -0.52226305 0.19844997 0.18899448 0.068887025 0.31797016 -0.03399999
0.100012355 0.25148195 0.15646867 -0.45902604 0.1279783 -0.4622112 -0.52907073 0.20759046
0.13923956 -0.23302251 0.020453243 0.20948327 0.36151308 -0.34507307 0.33187044 0.04729249
-0.017863177 -0.2432093 0.16438672 0.23131111 0.12925252 0.10627631 0.016035846 -0.23421772
0.22932635 0.09122301 -0.27360764 -0.17538919 0.1953502 0.043523084 -0.04047457 -0.13205318
-0.24196985 -0.12773764 -0.10623267 -0.24826168 0.20560847 0.15958034 0.22041658 -0.25176692
0.1587931 -0.14411986 -0.034487274 -0.3937816 -0.21755625 0.37413347 -0.24276084 -0.27394244
0.27821282 0.14351904 -0.18102136 -0.051625293 -0.004627084 -0.07301611 0.19331633 0.2401411
0.26394477 0.15169767 -0.17137556 -0.18564102 -0.17575699 -0.25450158 0.1361266 -0.098430365
-0.19911385 0.25721946 -0.17856888 -0.032561645 0.003956283 0.21232082 -0.118276946 -0.06601953
-0.060572978 0.1188328 -0.021085463 0.11911977 -0.26174146 0.14273064 0.04154213 0.25034046
-0.10772276 0.2382771 0.14617926 -0.27593994 0.21775758 -0.08390733 0.04789837 0.10324607
0.15535899 -0.1382494 -0.26728216 -0.17148548 0.42169082 0.5914849 -0.2717508 -0.08242479
-0.15438695 0.13300766 -0.31266722 -0.25782803 -0.053889547 -0.2932589 0.05614111 -0.2633927
-0.019918073 0.21488893 -0.02899374 -0.38782325 -0.106477514 0.3208308 0.099311136 0.009813222
0.24438684 -0.021445982 0.032233354 -0.3080726 -0.07132201 -0.087477006 0.008334778 -0.09790944
0.112167746 0.26491818 0.06561634 -0.21795365 -0.007849704 0.082492046 -0.07912418 0.12684746
0.17440338 -0.09727717 -0.011598809 0.06356108 -0.13641469 0.15905727 -0.1130502 -0.28973737
-0.33682925 0.21577263 -0.0070961774 0.39078653 0.006785289 -0.18681587 0.23294505 0.06904627
0.23371387 0.040445816 -0.10479348 0.08481584 -0.19233462 -0.26356405 -0.2733189 -0.077904925
-0.20716453 -0.1784643 -0.0047912383 0.004085217 0.21545237 -0.27580222 0.31154683 -0.19151655
0.07307457 -0.19156078 0.054427214 0.05047584 -0.054737397 -0.24178413 -0.12989631 -0.2407716
0.11119727 0.1007846 0.2471584 -0.30295315 -0.20333736 0.25774452 -0.1775122 0.025115905
0.3277443 0.3845281 0.021679182 -0.12509085 0.10064211 -0.25553104 -0.0031881733 -0.029996604
0.034288503 0.2868304 0.26120585 -0.079112366 -0.043276455 -0.031754866 -0.02196845 0.24310617
0.16170773 -0.038272966 -0.02770204 0.22716755 -0.1657568 0.15038763 0.0023983452 0.19390129
-0.1903155 -0.027979469 -0.17724691 0.018582214 -0.02815927 -0.19115615 -0.050182007 -0.09518278
0.010601587 0.14875473 -0.00042186902 -0.04729272 -0.086175635 -0.10381029 -0.14474562 0.059276577
00000000: e707 653e 53c2 31be 21d3 4abe 0480 9c3c
00000010: 76c0 7cbe ec33 713e f298 993e 307b c2be
00000020: 2086 86be 571d c93e 6334 97bd 1205 3c3e
00000030: d5a6 46be 1fcc ee3d 0955 dc3e dd14 543e
00000040: 6d08 24be 8a4a edbd de45 aabd c2c3 1b3e
00000050: 0bdc 483e 0d9d 773d b12c 223e ead3 b8be
00000060: b336 6a3e d0f5 ce3c 4505 aa3c 3d28 30be
00000070: c959 073b e410 06be 83fa 843e 7d41 aa3d
00000080: 9667 25be c174 ff3d 08b3 05bf 7836 4b3e
00000090: c587 413e a414 8d3d fccc a23e 9343 0bbd
000000a0: 47d3 cc3d 3ec2 803e 5339 203e 7605 ebbe
000000b0: be0c 033e f2a6 ecbe 2e71 07bf 9892 543e
000000c0: d194 0e3e 749d 6ebe 8f8d a73c c882 563e
000000d0: 3e18 b93e 6bad b0be ecea a93e c5b5 413d
000000e0: cc55 92bc dc0b 79be fe54 283e d2dc 6c3e
000000f0: c65a 043e 65a7 d93d 9b5d 833c c5d6 6fbe
00000100: 87d4 6a3e 21d3 ba3d 4d16 8cbe 3999 33be
00000110: e209 483e 4345 323d aac8 25bd f338 07be
00000120: f2c6 77be a8cd 02be 8490 d9bd 4f38 7ebe
00000130: 078b 523e 0769 233e e2b4 613e 98e7 80be
00000140: a99a 223e 2894 13be 8742 0dbd be9d c9be
00000150: 11c7 5ebe 6c8e bf3e 4c96 78be 2f42 8cbe
00000160: e971 8e3e a8f6 123e aa5d 39be 0b75 53bd
00000170: cb9e 97bb 7889 95bd b7f4 453e 8ce7 753e
00000180: c523 873e a256 1b3e 137d 2fbe ae18 3ebe
00000190: a4f9 33be 084e 82be c564 0b3e dc95 c9bd
000001a0: 80e4 4bbe 45b2 833e c3da 36be 5c5f 05bd
000001b0: b5a3 813b a16a 593e 2f3b f2bd 3f35 87bd
000001c0: 5f1b 78bd 9c5e f33d 6cbb acbc 11f5 f33d
000001d0: fa02 86be fb27 123e 1528 2a3d a02c 803e
000001e0: c09d dcbd e9fe 733e 04b0 153e 0048 8dbe
000001f0: d8fb 5e3e 9bd7 abbd 1531 443d ad72 d33d
00000200: 6d16 1f3e 4091 0dbe 35d9 88be e499 2fbe
00000210: dce7 d73e 8e6b 173f ec22 8bbe 54ce a8bd
00000220: 9d17 1ebe 2933 083e eb15 a0be 0902 84be
00000230: 49bb 5cbd 0826 96be 38f4 653d 68db 86be
00000240: 3a2b a3bc d80b 5c3e 4884 edbc c590 c6be
00000250: e210 dabd ef43 a43e a363 cb3d a3c7 203c
00000260: 8b40 7a3e 7caf afbc 1f07 043d b1bb 9dbe
00000270: 4611 92bd 2527 b3bd 988e 083c bf84 c8bd
00000280: 34b8 e53d 5ba3 873e dc61 863d 3e2f 5fbe
00000290: 0b9c 00bc 97f1 a83d dc0b a2bd 4de4 013e
000002a0: cd96 323e 4139 c7bd ee08 3ebc 502c 823d
000002b0: 4bb0 0bbe e9df 223e dd86 e7bd 7558 94be
000002c0: e274 acbe 80f3 5c3e 0d87 e8bb 2c15 c83e
000002d0: 2157 de3b a94c 3fbe 2689 6e3e 2168 8d3d
000002e0: b052 6f3e 83aa 253d f79d d6bd edb3 ad3d
000002f0: 5ef3 44be def1 86be 74f0 8bbe 9e8c 9fbd
00000300: f022 54be 58bf 36be d2ff 9cbb 49dd 853b
00000310: 8c9f 5c3e f335 8dbe 1183 9f3e ea1c 44be
00000320: 1fa8 953d 8228 44be 12ef 5e3d c1bf 4e3d
00000330: 5234 60bd 4296 77be 8a03 05be d58c 76be
00000340: 65bb e33d 2868 ce3d 1717 7d3e ad1c 9bbe
00000350: ab37 50be 17f7 833e c2c5 35be dfbf cd3c
00000360: 1ace a73e dee0 c43e 8a98 b13c d117 00be
00000370: 731d ce3d f7d4 82be acf0 50bb 70bb f5bc
00000380: 1a72 0c3d 6fdb 923e c6bc 853e aa05 a2bd
00000390: a742 31bd 6411 02bd 2ef7 b3bc d3f0 783e
000003a0: b696 253e 1dc4 1cbd 63ef e2bc 9c9e 683e
000003b0: 27bc 29be 37ff 193e 8e2d 1d3b 0f8e 463e
000003c0: 11e2 42be 3335 e5bc 3780 35be ba39 983c
000003d0: 45ae e6bc 70be 43be a68b 4dbd 30ef c2bd
000003e0: 47b2 2d3c 2953 183e 4d2e ddb9 03b6 41bd
000003f0: da7c b0bd 7d9a d4bd 3238 14be ffcb 723d

residual_model.0.fc_condition.bias f4 [16]
-0.3521064 -0.081435494 0.13458094 0.2616285 -0.3311148 -0.3099501 -0.1152013 0.23447646
-0.2502763 0.19576359 0.04729449 0.42254478 0.24922986 0.10887788 -0.018899525 0.16667129
00000000: 4a47 b4be a7c7 a6bd 96cf 093e 2cf4 853e
00000010: e187 a9be c8b1 9ebe a9ee ebbd 991a 703e
00000020: 3724 80be 4076 483e deb7 413d ca57 d83e
00000030: 1d36 7f3e 5efb de3d 2dd3 9abc e1ab 2a3e

residual_model.0.fc_output.weight f4 [16, 8]
-0.19777335 -0.045524687 -0.2877466 -0.16211133 0.034072075 -0.5287133 0.33355048 0.45451704
0.008546295 -0.08668992 -0.18200651 0.2040029 -0.05422641 0.3327855 0.13742141 0.30627355
-0.41187155 0.038678844 -0.015699966 -0.31494507 -0.4870203 -0.164393 -0.045560144 -0.4439118
0.31431705 0.29164857 0.2536899 -0.2702856 0.063162036 -0.33606586 -0.020646464 -0.14192271
0.11248543 -0.18809602 -0.13934797 -0.16836706 -0.065924354 0.31737617 -0.23419754 0.11943142
-0.55625796 -0.37883887 -0.37040955 0.3003303 0.18796389 0.3772708 0.3211373 -0.13405143
0.052396726 -0.1652998 -0.55701274 -0.08106435 0.059824888 -0.42924538 0.23715344 0.07842492
0.073944606 0.5036262 -0.37542656 0.10863916 -0.44538745 -0.24557133 0.1485815 0.51349944
0.21182439 0.11365713 -0.2768309 0.33341506 -0.2507796 -0.2929292 0.09025597 -0.39017504
0.24880032 0.14500158 0.22247863 -0.15060148 -0.11825602 0.16565162 0.42850626 -0.5145367
-0.363065 -0.2643775 -0.28971058 0.018208332 0.03214349 0.26410577 0.36352402 0.289998
0.1856574 0.17360142 0.07461659 0.28641015 -0.19580229 0.025401412 0.24428485 0.4094265
0.32834217 0.119385935 -0.31481674 -0.38445362 -0.18288365 -0.0781564 -0.07530069 0.25509417
0.6060244 0.23021363 -0.45182845 0.28353593 -0.32414094 0.20223968 0.13065693 0.19528297
0.5757155 0.53761923 0.18180823 -0.38222912 -0.35350925 -0.3023299 -0.2771613 -0.3436719
0.17974386 0.5202736 0.20212027 -0.32243457 -0.31743684 -0.09072562 0.31528884 -0.08682034
00000000: 1985 4abe 1878 3abd 8653 93be 8300 26be
00000010: 298f 0b3d c159 07bf 21c7 aa3e 75b6 e83e
00000020: c205 0c3c 7c8a b1bd ea5f 3abe 23e6 503e
00000030: 831c 5ebd dc62 aa3e 33b8 0c3e e3cf 9c3e
00000040: d4e0 d2be b56d 1e3d 379d 80bc 7b40 a1be
00000050: ba5a f9be a356 28be 469d 3abd 6848 e3be
00000060: 2aee a03e f652 953e a4e3 813e e062 8abe
00000070: 195b 813d d310 acbe c622 a9bc 3054 11be
00000080: c35e e63d 3e9c 40be 3cb1 0ebe 6a68 2cbe
00000090: 5903 87bd 217f a23e 7bd1 6fbe 7698 f43d
000000a0: ec66 0ebf 2bf7 c1be 52a6 bdbe e5c4 993e
000000b0: 9b79 403e a329 c13e 1c6c a43e c744 09be
000000c0: f39d 563d 5a44 29be 6398 0ebf 1105 a6bd
000000d0: f10a 753d 0dc6 dbbe 5ad8 723e 3f9d a03d
000000e0: 4570 973d a6ed 003f e937 c0be 357e de3d
000000f0: d309 e4be 0d77 7bbe c025 183e b374 033f
00000100: 7ee8 583e 12c5 e83d c8bc 8dbe 61b5 aa3e
00000110: 2f66 80be d1fa 95be 1fd8 b83d 06c5 c7be
00000120: 83c5 7e3e 4b7b 143e 70d1 633e 4637 1abe
00000130: 3630 f2bd 94a0 293e 2c65 db3e adb8 03bf
00000140: a8e3 b9be 7d5c 87be f254 94be a429 953c
00000150: e4a8 033d df38 873e d21f ba3e 9e7a 943e
00000160: f91c 3e3e 92c4 313e 95d0 983d 5aa4 923e
00000170: 6580 48be 9f16 d03c cf25 7a3e 5aa0 d13e
00000180: 771c a83e 9d80 f43d a92f a1be 1bd7 c4be
00000190: da45 3bbe 7610 a0bd 4037 9abd b49b 823e
000001a0: 6a24 1b3f 1fbd 6b3e 0f56 e7be 9f2b 913e
000001b0: cdf5 a5be eb17 4f3e eeca 053e 42f8 473e
000001c0: 1762 133f 6aa1 093f f02b 3a3e 89b3 c3be
000001d0: 2aff b4be fcca 9abe 16e8 8dbe c3f5 afbe
000001e0: c60e 383e a730 053f 9ef8 4e3e 2516 a5be
000001f0: 1587 a2be 5bce b9bd 8a6d a13e ddce b1bd

residual_model.0.fc_output.bias f4 [16]
-0.341228 -0.15188792 0.15869156 -0.08803635 0.21103206 0.22385865 0.1475922 0.0977049
0.24243543 0.22868337 0.06348187 0.3141449 0.11456906 0.19386768 -0.4285134 -0.13283645
00000000: 70b5 aebe 8288 1bbe 0a80 223e 674c b4bd
00000010: ca18 583e 343b 653e 6922 173e 8219 c83d
00000020: fe40 783e f92b 6a3e c802 823d 9ad7 a03e
00000030: 2fa3 ea3d 4085 463e 1c66 dbbe 4706 08be

residual_model.0.attention.0.attention.in_proj_weight f4 [48, 16]
-0.06294576 0.33001596 0.21599425 -0.13592649 -0.18745883 0.23707508 0.08060841 0.43831655
0.28009015 0.17731848 -0.13445026 -0.17007963 -0.28668454 0.2636316 0.19353284 0.1390152
-0.31175163 0.22890235 -0.122394055 0.22867543 0.14307295 -0.20749131 -0.0700648 -0.3223482
0.14815181 -0.39771178 0.16996118 -0.2125155 0.034689903 -0.20478103 -0.12312703 0.18746737
-0.35373107 -0.21178079 -0.33271214 -0.20598726 -0.050016973 0.046210673 -0.20260347 -0.51384896
-0.11099838 -0.15800941 -0.30446222 -0.04912536 -0.12523954 -0.30880994 0.07379517 -0.007101181
-0.2044247 -0.435037 -0.089339085 -0.5719553 0.34497452 -0.37538654 -0.48731416 -0.51853794
-0.35946676 -0.08873695 -0.18094563 -0.26300776 -0.5337007 0.1194195 0.13650064 0.023196563
-0.35928088 -0.49948263 -0.17684765 -0.1666702 0.66244197 -0.27413735 -0.18216363 -0.06712554
-0.14159328 0.22106545 -0.3118442 0.0708876 -0.09450326 0.03294817 -0.07069179 0.12098702
0.05276838 0.26165316 -0.2511277 0.2981065 0.42843014 -0.2124736 0.062681794 0.02832018
0.083241135 -0.09762082 -0.019188562 -0.12563892 -0.34443077 -0.110290505 0.25564474 0.08724096
0.100885734 0.0893041 0.1884918 0.19782342 0.105120495 0.23674613 0.1409925 0.07329827
0.2827522 -0.10190606 0.12057978 0.13982484 -0.06832695 -0.08583302 0.2559964 -0.039800312
0.276368 0.002514891 0.3361735 0.4048104 -0.40068114 0.36189213 0.27910787 0.19740507
-0.20961937 0.09728509 0.20012982 -0.09624194 0.13252601 0.085005544 0.25470796 -0.04082974
0.03223132 -0.45098004 -0.34049597 -0.34213296 0.062554225 -0.44498193 -0.2639495 -0.15139495
0.008067294 0.108819775 -0.27884036 -0.11725929 -0.50062066 0.2082242 0.10020867 -0.15101108
0.21329862 -0.20326811 -0.18749896 -0.07133562 0.31488985 -0.5638782 -0.031901836 -0.29774433
0.01219482 0.074577816 -0.16627544 0.15011998 -0.25534207 -0.05148015 -0.06830226 -0.24294412
0.67289233 -0.31288618 -0.07737174 -0.022138635 0.054940388 0.26584622 -0.08920738 0.23039174
-0.05052315 -0.026507813 -0.034046274 -0.24419653 -0.05115437 -0.20422198 0.076448746 0.02544337
0.05590973 0.29681736 -0.13906483 0.025705403 0.25981393 0.42571932 0.44263935 0.061629664
-0.14116864 0.044466794 0.2827755 -0.09296864 0.5436027 -0.06825577 -0.0123705305 0.24164033
-0.29470405 0.42359224 0.087191775 0.065063655 -0.2087711 0.5192666 0.35282084 0.0540301
0.21611097 0.34447792 0.22803518 0.28995138 0.058247153 0.06312875 -0.07191956 0.14875637
-0.039107572 -0.180757 0.14987266 -0.22132395 -0.02913169 -0.22667779 -0.1842377 -0.20760411
-0.4379106 -0.21929514 -0.28619084 -0.31289673 -0.25841418 -0.04915027 0.014458704 -0.02844497
-0.30263007 -0.39331967 0.025786763 -0.021384608 -0.10316352 0.17007817 -0.014724815 -0.29557952
0.048313994 0.23057191 0.09854812 0.20042075 -0.030007767 -0.05302998 -0.06440181 -0.15485464
0.039483838 -0.093781956 -0.25445113 0.01701162 0.66143286 0.3062762 0.07932883 -0.15116607
-0.2680967 -0.09032355 -0.3701936 -0.111445345 -0.31323 0.13564375 -0.34420022 0.21177427
00000000: b5e9 80bd daf7 a83e 992d 5d3e 5030 0bbe
00000010: 35f5 3fbe cfc3 723e 0616 a53d 076b e03e
00000020: fa67 8f3e fa92 353e 54ad 09be 5b29 2ebe
00000030: 51c8 92be b9fa 863e 792d 463e 005a 0e3e
00000040: e99d 9fbe 6165 6a3e bca9 fabd e429 6a3e
00000050: b781 123e 9a78 54be 227e 8fbd d30a a5be
00000060: 1cb5 173e e1a0 cbbe 4e0a 2e3e aa9d 59be
00000070: 0017 0e3d 1eb2 51be 062a fcbd 72f7 3f3e
00000080: 3d1c b5be 10dd 58be 3f59 aabe 53ee 52be
00000090: 99de 4cbd 6747 3d3d 4977 4fbe 9b8b 03bf
000000a0: 1e53 e3bd 38cd 21be 79e2 9bbe ac37 49bd
000000b0: cb3e 00be 561c 9ebe ec21 973d 06b1 e8bb
000000c0: b554 51be 2bbd debe 69f7 b6bd aa6b 12bf
000000d0: 80a0 b03e aa32 c0be 3e81 f9be e7be 04bf
000000e0: 070c b8be b8bb b5bd d049 39be f4a8 86be
000000f0: 9ca0 08bf 3692 f43d d3c6 0b3e b806 be3c
00000100: aaf3 b7be 30bc ffbe 8d17 35be 98ab 2abe
00000110: cc95 293f bb5b 8cbe 1a89 3abe 1d79 89bd
00000120: d4fd 10be fb5e 623e 0baa 9fbe 852d 913d
00000130: ed8a c1bd a9f4 063d dbc6 90bd 0bc8 f73d
00000140: a823 583d 67f7 853e cf93 80be 6aa1 983e
00000150: 325b db3e ae92 59be 505f 803d b9ff e73c
00000160: 547a aa3d 6ded c7bd 5531 9dbc 7da7 00be
00000170: 3b59 b0be fddf e1bd dee3 823e 63ab b23d
00000180: 2e9d ce3d 11e5 b63d ff03 413e 3992 4a3e
00000190: 6a49 d73d 946d 723e 5760 103e 671d 963d
000001a0: e5c4 903e 20b4 d0bd 88f2 f63d 3e2e 0f3e
000001b0: 00ef 8bbd 39c9 afbd f611 833e a705 23bd
000001c0: 1b80 8d3e dfd0 243b ef1e ac3e 4f43 cf3e
000001d0: 1426 cdbe ed49 b93e 3ae7 8e3e 8e24 4a3e
000001e0: 76a6 56be 683d c73d d5ee 4c3e 7f1a c5bd
000001f0: e6b4 073e 6317 ae3d 1569 823e 163d 27bd
00000200: fd04 043d dbe6 e6be 7d55 aebe 0d2c afbe
00000210: 6e1c 803d acd4 e3be 6424 87be 4707 1bbe
00000220: af2c 043c e7dc de3d 2ac4 8ebe a325 f0bd
00000230: ad28 00bf ba38 553e 343a cd3d a6a2 1abe
00000240: f46a 5a3e 8425 50be baff 3fbe 6918 92bd
00000250: 3e39 a13e 525a 10bf 80ab 02bd f271 98be
00000260: c8cc 473c 41bc 983d 1c44 2abe 0db9 193e
00000270: 32bc 82be dadc 52bd 0ee2 8bbd 58c6 78be
00000280: ac42 2c3f 9e32 a0be 1375 9ebd 155c b5bc
00000290: 2c09 613d ff1c 883e 5cb2 b6bd d0eb 6b3e
000002a0: 5df1 4ebd ea26 d9bc 1b74 0bbd a80e 7abe
000002b0: 3f87 51bd 911f 51be 2991 9c3d 9d6e d03c
000002c0: 9a01 653d 72f8 973e 0367 0ebe 2394 d23c
000002d0: 5506 853e e2f7 d93e a0a1 e23e 636f 7c3d
000002e0: 838e 10be d022 363d f3c7 903e 5866 bebd
000002f0: 8c29 0b3f aec9 8bbd c4ad 4abc 9070 773e
00000300: 73e3 96be 15e1 d83e 9a91 b23d 1840 853d
00000310: 17c8 55be a8ee 043f efa4 b43e ab4e 5d3d
00000320: 324c 5d3e 695f b03e 0e82 693e 8274 943e
00000330: 9194 6e3d a549 813d 904a 93bd 9753 183e
00000340: 432f 20bd 5d18 39be 3878 193e bfa2 62be
00000350: 95a5 eebc 391e 68be cfa8 3cbe 2c96 54be
00000360: d135 e0be e88e 60be 9b87 92be 0034 a0be
00000370: dd4e 84be cb51 49bd 33e4 6c3c 6d05 e9bc
00000380: 54f2 9abe 3261 c9be c33e d33c c62e afbc
00000390: 6547 d3bd f928 2e3e 5a40 71bc 3356 97be
000003a0: e5e4 453d 0b1b 6c3e 99d3 c93d 193b 4d3e
000003b0: d9d2 f5bc f735 59bd 19e5 83bd 3792 1ebe
000003c0: ceb9 213d c110 c0bd 6b47 82be f45b 8b3c
000003d0: aa53 293f 3cd0 9c3e 2777 a23d 47cb 1abe
000003e0: f843 89be 8efb b8bd 048a bdbe 753d e4bd
000003f0: af5f a0be 32e6 0a3e 033b b0be 5bdb 583e

residual_model.0.attention.0.attention.in_proj_bias f4 [48]
0.009594337 -0.038013134 -0.11749364 -0.30289158 -0.18701892 0.023331821 0.144003 0.27982354
-0.21430908 -0.17727861 -0.05452022 0.11583114 0.27145225 -0.38301182 0.01898913 0.004962484
-2.1038768e-05 2.8833465e-05 -9.7921375e-06 -0.00016665395 -6.315844e-05 -7.38854e-05 9.438579e-05 7.62759e-05
-5.2499727e-05 2.8435074e-06 1.30560975e-05 4.9559047e-05 4.9894286e-05 -9.313228e-05 8.9452136e-05 1.3303e-05
-0.05277471 0.055337243 -0.12982331 -0.027567517 -0.08015018 -0.021523014 0.05547382 -0.11467436
0.007502182 0.123574 -0.15511419 0.08556646 0.115333825 0.07464161 0.12132012 0.04406121
00000000: 9131 1d3c a9b3 1bbd 81a0 f0bd 9b14 9bbe
00000010: e381 3fbe 6022 bf3c 8675 133e 0845 8f3e
00000020: d773 5bbe 8688 35be 9850 5fbd e038 ed3d
00000030: cafb 8a3e 201a c4be 188f 9b3c 559c a23b
00000040: 697c b0b7 65df f137 e948 24b7 d4bf 2eb9
00000050: ee73 84b8 ecf2 9ab8 fcf0 c538 50f6 9f38
00000060: 2733 5cb8 16d3 3e36 830b 5b37 9fdd 4f38
00000070: 9545 5138 0350 c3b8 4098 bb38 f32f 5f37
00000080: 4b2a 58bd 4ea9 623d 67f0 04be 46d5 e1bc
00000090: c725 a4bd 0851 b0bc 8438 633d 64da eabd
000000a0: ddd4 f53b 5e14 fd3d 41d6 1ebe 783d af3d
000000b0: 2434 ec3d b3dd 983d af76 f83d 8779 343d

residual_model.0.attention.0.attention.out_proj.weight f4 [16, 16]
-0.1877609 -0.10269526 -0.10631398 -0.10737874 -0.07335988 -0.07218224 0.19102485 -0.1917989
0.035185736 -0.08274245 -0.17331351 -0.027613157 0.118223935 -0.037866656 -0.036199864 -0.013174101
-0.12542145 -0.0055884756 -0.09417024 0.08964852 0.09536597 -0.06209466 -0.041266326 -0.07826368
0.08071196 -0.054246437 0.014188329 0.060317375 -0.013855323 0.08047675 -0.02282469 0.07776955
-0.05600898 0.028495625 -0.31634784 -0.044845413 0.10451707 -0.03960444 -0.3401384 0.0860147
-0.07564517 0.019171985 -0.17165905 0.06338561 -0.14577594 0.085305065 -0.09173555 -0.008609787
0.13225482 0.028387979 0.06803085 0.0839171 -0.11795502 -0.14588174 -0.22456433 0.052649416
0.18852969 0.2692439 -0.10895555 0.16892812 -0.17389226 0.0369851 0.0023675049 -0.12757114
0.05182348 0.009099237 0.14568394 0.11403128 0.059798464 -0.0966081 -0.02574879 0.05411818
0.010949171 0.009513946 0.17062558 -0.26451728 -0.01573336 -0.019719418 0.109560534 0.050989218
0.019028552 0.15462026 -0.20648542 -0.008457589 0.18353386 0.1264275 0.026107933 -0.051987052
0.021431718 -0.28206223 0.099767275 0.012930989 -0.020178335 0.20676622 0.017339967 0.110476695
-0.17472859 0.07961177 -0.10641686 -0.0029031837 0.101755366 -0.052393585 0.15051322 0.033491816
0.043074623 0.07871587 -0.038141187 -0.23671387 -0.098891765 0.02650762 0.07853187 -0.057879113
-0.16225067 0.022524001 -0.009476641 0.10092063 -0.10073108 -0.08692899 -0.09969752 -0.22639786
0.085169315 -0.18335916 -0.13134502 0.33094397 0.18267329 0.083740324 -0.009801254 0.071455866
-0.18301255 -0.095997624 -0.18862934 0.15945996 0.124384165 -0.016361808 0.047922984 -0.04880401
0.119290076 -0.107864566 0.029644322 -0.064154066 -0.06253047 0.3190089 -0.11322361 0.13799207
-0.050815064 0.255702 0.1491742 0.029538022 0.0923265 0.0322432 4.8258084e-05 0.027462432
0.115897976 0.0069459695 0.06293764 -0.13394812 -0.22382687 -0.026139146 -0.039214034 -0.026464464
-0.05248789 -0.12692234 -0.062837124 -0.041128904 0.09090408 -0.09044927 -0.012866937 -0.18251002
-0.01101236 -0.01760755 -0.09832877 -0.12386818 0.17366742 -0.047599897 0.06586537 0.080261454
-0.07411578 0.06460828 -0.057486918 -0.10394461 -0.020323249 0.073615536 0.16785069 -0.18832546
0.1465338 0.13734265 -0.021029182 0.030149331 0.014515186 0.07472771 -0.29786554 0.18574639
-0.004744385 0.10808328 0.19628297 0.10789336 0.030076386 0.053474434 0.1144981 -0.08491837
0.102916285 0.014892715 0.3178567 -0.108758785 -0.20898026 0.07077082 -0.2071615 0.19204071
0.0017112471 0.08130476 -0.10507824 0.07594728 0.004187795 -0.052954406 -0.023927571 0.033591922
0.0018136987 0.061894085 0.07549807 -0.061557565 -0.086287595 0.05760673 -0.0030887255 0.09249705
0.06380735 0.008686264 0.034170635 0.17118827 -0.14256296 0.14082687 -0.09805312 0.20711973
-0.13917767 0.079211995 0.21477859 -0.03908563 -0.02466824 0.14677896 -0.104305305 0.050736547
-0.02167965 0.24948621 -0.032334633 -0.115837395 -0.07143528 0.07183062 0.17893218 0.07264442
-0.08907257 -0.06804656 0.07273116 0.07885441 0.070894405 0.031509724 0.1584998 -0.16820218
00000000: 6544 40be e451 d2bd 25bb d9bd 63e9 dbbd
00000010: b43d 96bd 48d4 93bd 059c 433e ee66 44be
00000020: eb1e 103d e074 a9bd 1979 31be fd34 e2bc
00000030: 641f f23d 111a 1bbd 4f46 14bd 2fd8 57bc
00000040: 7b6e 00be 881f b7bb 54dc c0bd a599 b73d
00000050: 3c4f c33d f856 7ebd e106 29bd b548 a0bd
00000060: 504c a53d 8331 5ebd 2a76 683c 5a0f 773d
00000070: 7001 63bc ffd0 a43d d8fa babc a445 9f3d
00000080: ac69 65bd a86f e93c 58f8 a1be d3af 37bd
00000090: 0c0d d63d 4438 22bd 9f26 aebe 7a28 b03d
000000a0: dbeb 9abd 910e 9d3c 64c7 2fbe 51d0 813d
000000b0: 4a46 15be 6cb4 ae3d d9df bbbd 1010 0dbc
000000c0: cf6d 073e e88d e83c c253 8b3d bbdc ab3d
000000d0: 6792 f1bd 0662 15be 31f4 65be eaa6 573d
000000e0: ed0d 413e 56da 893e 1624 dfbd 7efb 2c3e
000000f0: d010 32be b07d 173d 2428 1b3b 02a2 02be
00000100: db44 543d f714 153c 2c2e 153e 3b89 e93d
00000110: 3cef 743d 78da c5bd 20ef d2bc 06ab 5d3d
00000120: 2764 333c 62e0 1b3c 79b8 2e3e cf6e 87be
00000130: 3fe3 80bc 9e8a a1bc 4661 e03d 12da 503d
00000140: c4e1 9b3c c654 1e3e ea70 53be b391 0abc
00000150: 4df0 3b3e 3676 013e 4ee0 d53c 60f0 54bd
00000160: 9291 af3c 766a 90be c952 cc3d 80dc 533c
00000170: 094d a5bc 86ba 533e 8c0c 8e3c 9b41 e23d
00000180: 0dec 32be 7f0b a33d 15f1 d9bd 5743 3ebb
00000190: 1e65 d03d a89a 56bd 2320 1a3e b72e 093d
000001a0: 046f 303d c935 a13d ef39 1cbd 1f65 72be
000001b0: c487 cabd 8226 d93c 51d5 a03d a612 6dbd
000001c0: 0a25 26be 4184 b83c ea43 1bbc 7aaf ce3d
000001d0: 194c cebd d407 b2bd 372e ccbd d7d4 67be
000001e0: 406d ae3d 81c2 3bbe 4f7f 06be 7d71 a93e
000001f0: b50e 3b3e 0c80 ab3d 7095 20bc 7457 923d
00000200: a467 3bbe 679a c4bd 0d28 41be 7949 233e
00000210: 20bd fe3d 3309 86bc e44a 443d b7e6 47bd
00000220: 5b4e f43d 19e8 dcbd a6d8 f23c 3563 83bd
00000230: fa0f 80bd 2255 a33e c8e1 e7bd cb4d 0d3e
00000240: 7523 50bd 5feb 823e 1fc1 183e b9f9 f13c
00000250: ad15 bd3d 7211 043d b968 4a38 e5f8 e03c
00000260: eb5b ed3d 049b e33b 73e5 803d b229 09be
00000270: df32 65be c321 d6bc e59e 20bd 01cc d8bc
00000280: 8bfd 56bd eef7 01be c0b0 80bd c876 28bd
00000290: eb2b ba3d 783d b9bd d8cf 52bc e8e3 3abe
000002a0: 306d 34bc b53d 90bc 9860 c9bd 9aae fdbd
000002b0: dfd5 313e 1cf8 42bd 6ce4 863d 1e60 a43d
000002c0: 04ca 97bd 5951 843d 6777 6bbd e9e0 d4bd
000002d0: f17c a6bc bec3 963d 0de1 2b3e 64d8 40be
000002e0: f50c 163e 8da3 0c3e 6445 acbc bbfb f63c
000002f0: 1ad1 6d3c d70a 993d d581 98be 4d34 3e3e
00000300: c976 9bbb c45a dd3d 67fe 483e 32f7 dc3d
00000310: c162 f63c 0208 5b3d fb7d ea3d afe9 adbd
00000320: c6c5 d23d 9300 743c 1dbe a23e edbc debd
00000330: ecfe 55be 4bf0 903d 2522 54be 52a6 443e
00000340: ed4b e03a 1c83 a63d 4333 d7bd 3f8a 9b3d
00000350: c539 893b b8e6 58bd c103 c4bc af97 093d
00000360: a1b9 ed3a a784 7d3d bb9e 9a3d c923 7cbd
00000370: 8db7 b0bd 09f5 6b3d 376c 4abb 186f bd3d
00000380: 6ead 823d d550 0e3c 82f6 0b3d fa4b 2f3e
00000390: 06fc 11be eb34 103e 13d0 c8bd 3217 543e
000003a0: 9784 0ebe e639 a23d ebee 5b3e 4118 20bd
000003b0: 0d15 cabc 394d 163e 059e d5bd 20d1 4f3d
000003c0: 8599 b1bc 5079 7f3e 5271 04bd 283c edbd
000003d0: a94c 92bd ef1b 933d ff39 373e 99c6 943d
000003e0: ae6b b6bd ff5b 8bbd 13f4 943d 6c7e a13d
000003f0: 1631 913d 5710 013d c64d 223e 313d 2cbe

residual_model.0.attention.0.attention.out_proj.bias f4 [16]
-0.083286166 0.054421652 -0.18094471 -0.039681375 0.011606049 0.15836285 0.21430638 -0.044036634
-0.12337585 -0.26717427 0.07946848 -0.0038646616 0.09950149 -0.069895945 -0.0017437611 -0.064387776
00000000: f091 aabd 3de9 5e3d 9249 39be f088 22bd
00000010: 4c27 3e3c df29 223e 2273 5b3e c25f 34bd
00000020: 7aac fcbd 11cb 88be 5fc0 a23d 4346 7dbb
00000030: 70c7 cb3d 9b25 8fbd ea8e e4ba bddd 83bd

residual_model.0.attention.0.fc_1.weight f4 [8, 16]
0.12280825 0.22975104 -0.35012487 -0.27721402 0.52310807 -0.10631604 0.01261274 0.2517115
0.04522973 0.32239264 -0.39818606 0.32319546 -0.39037856 -0.012423517 -0.13189599 -0.09137734
0.17528628 0.20254043 -0.09484288 -0.085271314 0.26021254 0.052938767 -0.14777787 -0.12109835
0.27177998 0.21414544 -0.18395695 0.0033016042 -0.29930133 0.014528627 0.07193013 0.16842857
0.2951995 0.026093472 0.18837436 -0.03291038 -0.002212876 -0.18413313 -0.17168182 0.10629074
-0.13251671 0.1934855 -0.11144521 0.17294836 -0.0848382 0.10798636 0.08133292 -0.14541608
0.17302884 0.76416403 0.37289378 -0.2995263 0.72862726 -0.19504312 -0.31752008 -0.20704037
-0.036947425 0.19033049 -0.49324197 0.58077556 -0.3619718 -0.4606336 -0.012498796 0.1288878
-0.18930916 -0.03491078 -0.18921518 -0.101739235 0.1028745 0.014596161 0.057425924 -0.027175272
0.2517645 0.16466881 -0.08906343 0.18770292 -0.3018289 0.046552695 0.21056724 -0.0044524893
0.155793 0.2958283 0.27332142 0.031242222 0.34003392 0.3669105 -0.059089642 -0.2409411
-0.07196946 0.050498478 -0.21939747 0.051424894 0.38902375 0.0911164 -0.34394065 -0.21307765
0.1528019 -0.007419436 0.026000248 0.017764907 0.14973618 0.040717553 0.25694367 -0.27728128
-0.4976753 -0.07663276 -0.41200042 0.34049708 -0.12675901 -0.33110312 0.037673596 -0.048956003
-0.2185941 0.14843346 -0.10137009 0.025902037 0.23154409 -0.016484136 0.28803983 0.13809094
0.08160475 0.01033639 0.0016115062 0.28931853 -0.21287653 -0.49195784 0.114924416 0.04550397
00000000: e482 fb3d db43 6b3e 9143 b3be ffee 8dbe
00000010: 69ea 053f 39bc d9bd aaa5 4e3c 54e0 803e
00000020: cf42 393d a610 a53e 0bdf cbbe e079 a53e
00000030: b3df c7be 028c 4bbc be0f 07be 0b24 bbbd
00000040: 3f7e 333e c266 4f3e fc3c c2bd baa2 aebd
00000050: 943a 853e 52d6 583d 1553 17be 6902 f8bd
00000060: bf26 8b3e f148 5b3e 365f 3cbe ba5f 583b
00000070: 063e 99be 7a09 6e3c 1b50 933d 8a78 2c3e
00000080: 6424 973e fac1 d53c 35e5 403e 09cd 06bd
00000090: e605 11bb 658d 3cbe 5ccd 2fbe f6ae d93d
000000a0: 76b2 07be 1021 463e 633d e4bd 6019 313e
000000b0: a6bf adbd f427 dd3d e091 a63d f4e7 14be
000000c0: 792e 313e 41a0 433f efeb be3e 835b 99be
000000d0: 5187 3a3f 62b9 47be fe91 a2be 6402 54be
000000e0: 2f56 17bd ffe5 423e 368a fcbe b5ad 143f
000000f0: 5e54 b9be 2bd8 ebbe c0c7 4cbc 2afb 033e
00000100: 43da 41be 9bfe 0ebd a0c1 41be a95c d0bd
00000110: deaf d23d bd24 6f3c 7237 6b3d ad9e debc
00000120: 47e7 803e f19e 283e e366 b6bd 3235 403e
00000130: 5189 9abe 0aae 3e3d f09e 573e 30e6 91bb
00000140: 3388 1f3e cf76 973e c9f0 8b3e b0ef ff3c
00000150: ed18 ae3e b1db bb3e fb07 72bd 44b9 76be
00000160: b964 93bd 7ed7 4e3d bba9 60be e9a2 523d
00000170: 1f2e c73e 3c9b ba3d fd18 b0be 0731 5abe
00000180: 1a78 1c3e bd1e f3bb 79fe d43c b687 913c
00000190: 7154 193e 73c7 263d 1f8e 833e d0f7 8dbe
000001a0: 4ccf febe a3f1 9cbd b8f1 d2be a255 ae3e
000001b0: 1dcd 01be 5986 a9be a14f 1a3d 1786 48bd
000001c0: 22d7 5fbe f1fe 173e 1f9b cfbd 8230 d43c
000001d0: e519 6d3e bd09 87bc f579 933e b667 0d3e
000001e0: 6420 a73d f659 293c 2d39 d33a 8f21 943e
000001f0: 4efc 59be e6e1 fbbe 7e5d eb3d 5f62 3a3d

residual_model.0.attention.0.fc_1.bias f4 [8]
-0.07699114 -0.08893726 0.0009038881 -0.12960993 0.060841046 -0.14715539 0.2011083 0.074768305
00000000: 88ad 9dbd bd24 b6bd e7f2 6c3a 77b8 04be
00000010: 7634 793d e7af 16be 56ef 4d3e 2020 993d
